src/cvrp/model/v5-500.model (torch_old, 264536 bytes, 26 tensors)

encoder.fc_node.weight f4 [64, 4]
0	0xbf3f330a	-0.74687254
1	0x3f6439e7	0.8915085
2	0xbe38e5e1	-0.18056442
3	0x3e8c3d18	0.2739036
4	0xbdb5ff62	-0.08886601
5	0xbe834900	-0.25641632
6	0x3f1fc64f	0.6241197
7	0x3f16c1cb	0.58889455
8	0x3f2ffb59	0.687429
9	0xbe74be15	-0.23900636
10	0xbe8da6df	-0.27666375
11	0xbe9e6283	-0.30934533
12	0xbf33ce8c	-0.7023704
13	0x3ee162dc	0.44020736
14	0x3d96259c	0.07331392
15	0xbe361828	-0.17782652
16	0xbf6b72b2	-0.91971886
17	0xbedbd45c	-0.42935455
18	0x3e62b076	0.22137627
19	0xbdf4fa0a	-0.11961754
20	0xbe9063b8	-0.2820108
21	0x3ddc1aec	0.107473224
22	0xbf183c75	-0.5946725
23	0xbf2b3a71	-0.6688605
24	0x3f2f145a	0.6839043
25	0x3e808fe5	0.25109783
26	0xbe0fc1fc	-0.14038843
27	0x3e2b7e91	0.167475
28	0xbf0cb439	-0.549625
29	0xbe856e53	-0.26060733
30	0x3e0c7008	0.13714612
31	0x3ed7a8e7	0.4212105
32	0x3fac6db5	1.347098
33	0xbe33cba6	-0.17558154
34	0xbe8f6670	-0.2800784
35	0x3ec3345c	0.38125885
36	0xbe388779	-0.18020429
37	0x3f2063a8	0.62652063
38	0xbebcf189	-0.36903027
39	0x3e808ee2	0.2510901
40	0xbf183873	-0.59461135
41	0x3e10b707	0.1413232
42	0x3e292ca5	0.16520937
43	0xbda9ad06	-0.08284955
44	0x3f605516	0.8762983
45	0x3e631b42	0.22178367
46	0xbeccc5fa	-0.39994794
47	0x3edabbbc	0.42721355
48	0x3f186403	0.59527606
49	0x3de63a7b	0.11241623
50	0xbec29b57	-0.3800914
51	0x3e917c1f	0.2841501
52	0x3ed11839	0.40838793
53	0x3f1713dc	0.5901468
54	0xbebc1d31	-0.3674102
55	0x3eac483d	0.33648863
56	0xbf4e30c9	-0.8054319
57	0xbec68476	-0.38772935
58	0xbd28be61	-0.041197184
59	0x3e4a811e	0.19775817
60	0x3cf34142	0.029694203
61	0x3f8cfbc4	1.1014333
62	0xbe2f6c84	-0.17131239
63	0x3defdf85	0.11712555
64	0xbf6a7caa	-0.9159647
65	0x3e3e1268	0.18561709
66	0xbde0d370	-0.109778285
67	0x3e342a53	0.1759427
68	0xbe923ddc	-0.2856282
69	0x3e5b7311	0.21430613
70	0x3eee4846	0.46539515
71	0xbeca066c	-0.39458025
72	0xbebe349c	-0.37149513
73	0x3cef2ef2	0.02919719
74	0xbef9f93a	-0.48822957
75	0xbef08663	-0.4697753
76	0xbe17630d	-0.14783879
77	0xbea18783	-0.315487
78	0xbe8c3b28	-0.27388883
79	0xbd8c8250	-0.06860793
80	0x3f907393	1.128527
81	0x3e9dee20	0.30845737
82	0x3ec572c6	0.38564128
83	0xbeec535e	-0.46157354
84	0x3efc74c4	0.49307835
85	0x3e1213ac	0.14265317
86	0xbf135cd8	-0.57563543
87	0xbf130fb9	-0.57445866
88	0xbe612f4d	-0.219907
89	0x3e76dbfa	0.24107352
90	0x3e852451	0.2600427
91	0xbe0e8385	-0.13917358
92	0x3eb99089	0.36243084
93	0xbee07c10	-0.43844652
94	0xbe95bec9	-0.2924712
95	0xbd99ca92	-0.0750934
96	0xbe583aae	-0.21116135
97	0x3ee7457f	0.4517021
98	0xbe35ac7d	-0.1774158
99	0xbdc2de33	-0.095150374
100	0xbf44fcb8	-0.7694812
101	0x3e4b0f29	0.19830002
102	0xbea7ad68	-0.32749486
103	0x3ea1a8fb	0.31574234
104	0xbe38bbb8	-0.18040359
105	0xbf38ba30	-0.721591
106	0xbe43f0c3	-0.19134812
107	0xbcf6a85c	-0.030109577
108	0xbf8b1071	-1.0864393
109	0x3ee448bb	0.4458674
110	0xbd9bbf11	-0.076048024
111	0x3b8b20ea	0.004245867
112	0x3f106c40	0.56415176
113	0x3e7c16c5	0.24618061
114	0x3e329d64	0.17442852
115	0xbcff2a8b	-0.031148216
116	0x3ee369e4	0.44416726
117	0xbf31549b	-0.6926972
118	0xbe2a8bc5	-0.1665488
119	0x3d3afbf6	0.045650445
120	0xbee9e3f2	-0.4568172
121	0xbeb266f7	-0.3484418
122	0x3ed70dcb	0.4200271
123	0x3bd116c5	0.006380888
124	0xbf036ac8	-0.5133481
125	0x3ecfccf7	0.40586063
126	0x3e0d783b	0.13815396
127	0x3e572c2d	0.21012945
128	0xbcfc090d	-0.030766034
129	0xbf0228f5	-0.50843745
130	0x3cff6f9d	0.031181151
131	0x3e8b1fc8	0.27172685
132	0xbf4fdbdc	-0.81194854
133	0x3eac0c93	0.33603343
134	0xbed02597	-0.4065368
135	0x3ec95c5b	0.39328274
136	0xbe5b0df3	-0.2139204
137	0x3ed47372	0.41494328
138	0x3dae3274	0.08505717
139	0xbeac2fcc	-0.33630216
140	0x3f77fd75	0.9687112
141	0xbe9f2b59	-0.3108776
142	0x3dcda0fa	0.100404695
143	0x3d6b66ee	0.05747121
144	0xbe9ea794	-0.30987227
145	0xbe2caace	-0.16862032
146	0x3e18ee9b	0.14934771
147	0x3ec2b01f	0.38024995
148	0x3d718711	0.0589667
149	0xbf84196a	-1.0320256
150	0x3e741c8c	0.23839015
151	0xbe639be0	-0.2222743
152	0x3f138d58	0.5763755
153	0xbedfb16b	-0.43690047
154	0xbe82a111	-0.2551351
155	0x3eec136b	0.46108565
156	0x3f83d198	1.0298338
157	0xbe69673d	-0.22793289
158	0xbd8d1daa	-0.068904236
159	0xbc82f19c	-0.015984349
160	0x3ed71e6e	0.42015404
161	0xbf41bded	-0.7568043
162	0xbe3209cc	-0.1738655
163	0x3cd45fb5	0.025924543
164	0xbeb969c0	-0.36213493
165	0xbeb9276e	-0.36162895
166	0xbeecbc76	-0.46237534
167	0x3e1e2396	0.15443262
168	0x3e6f1245	0.23346813
169	0xbe4ed95b	-0.20200102
170	0xbeed6494	-0.46365798
171	0x3e1a9f46	0.1509982
172	0x3f4d53f1	0.8020621
173	0x3d205b3d	0.03914951
174	0xbe36dbcd	-0.17857285
175	0x3d016d0d	0.03159814
176	0x3f436e81	0.7634049
177	0x3ef8c89f	0.48590562
178	0x3de44d01	0.111475
179	0xbe307be0	-0.17234755
180	0xbebd3cbb	-0.36960396
181	0xbec4a91f	-0.3841028
182	0xbed88aa4	-0.42293274
183	0xbede3eed	-0.43407384
184	0x3ed8007e	0.42187876
185	0xbf24446b	-0.641669
186	0xbe968978	-0.29401755
187	0x3e8d5db9	0.27610567
188	0x3e4d85f0	0.20070624
189	0xbea250cf	-0.31702277
190	0x3e7cf170	0.24701476
191	0x3f0d786d	0.5526188
192	0x3e46cb0f	0.19413398
193	0xbdbf0030	-0.09326208
194	0x3f44de79	0.76901966
195	0x3f32d2d0	0.69852924
196	0x3f37490d	0.7159584
197	0xbe73ee45	-0.23821361
198	0x3e1e269f	0.1544442
199	0xbe5b37c8	-0.21407998
200	0x3e749c68	0.23887789
201	0x3ea76fd0	0.32702494
202	0x3e2f45c6	0.1711646
203	0x3e9e637c	0.30935276
204	0x3f3ee0e8	0.7456193
205	0x3e80e089	0.25171307
206	0x3dd114f7	0.10209077
207	0xbe7acc19	-0.2449192
208	0xbd8c89a4	-0.0686219
209	0x3f0d902c	0.55298114
210	0x3dc1b37f	0.09458064
211	0x3c9f13a8	0.019418553
212	0x3f0229f2	0.50845253
213	0xbea9aca4	-0.33139527
214	0xbd79a290	-0.060946047
215	0x3e6e8a8d	0.2329504
216	0xbef6535e	-0.4811048
217	0xbf019b0d	-0.50627214
218	0x3d5bc76f	0.05365699
219	0x3e881d26	0.26584738
220	0xbea86739	-0.32891253
221	0xbe190148	-0.14941895
222	0x3ef1ddb3	0.47239456
223	0xb984cc18	-0.00025329064
224	0x3f51607c	0.8178785
225	0xbe8a0b4f	-0.26961753
226	0xbaedebaa	-0.0018151898
227	0xbc98f4ce	-0.01867142
228	0x3f4777ad	0.77916986
229	0xbe0b1389	-0.13581671
230	0x3eeb1d57	0.45920822
231	0x3f2e3ef2	0.68064797
232	0xbf2285b1	-0.63485247
233	0x3e08c32c	0.13355702
234	0x3d73cc9a	0.059521295
235	0x3dc888d4	0.09791723
236	0x3f129bca	0.57268965
237	0x3ed4d453	0.4156824
238	0x3e4a0b93	0.19730978
239	0xbe01e216	-0.12683901
240	0x3f5adc7d	0.8549269
241	0x3eeaa5b7	0.45829555
242	0xbece9ea6	-0.40355414
243	0x3e51eabe	0.20499703
244	0x3e93704f	0.28796622
245	0x3ec6c39b	0.3882111
246	0x3e3da8bf	0.18521403
247	0xbede380a	-0.4340213
248	0x3dd4a0f0	0.10382259
249	0xbda10a22	-0.07863261
250	0xbf376709	-0.71641594
251	0xbf2fbacb	-0.686444
252	0xbf909360	-1.1294975
253	0x3dafcf77	0.08584493
254	0x3e33d414	0.1756137
255	0xbde555f9	-0.111980386

encoder.fc_node.bias f4 [64]
0	0xbe7ae9c7	-0.24503241
1	0xbec37650	-0.38176203
2	0xbe1725cc	-0.14760512
3	0x3d40e358	0.047091812
4	0x3dc02253	0.09381547
5	0xbe114039	-0.14184655
6	0xbeb044e6	-0.34427565
7	0x3e3b2339	0.18275155
8	0xbd920e63	-0.0713165
9	0xbc3e747a	-0.01162445
10	0xbedf45ab	-0.4360784
11	0xbeec0bd8	-0.46102786
12	0x3ecc6e3d	0.39927855
13	0xbdd34f6b	-0.10317882
14	0x3f488303	0.7832491
15	0x3ea02816	0.31280583
16	0xbdee5c7d	-0.116387345
17	0xbe8a31c5	-0.26991096
18	0xbf49c56c	-0.78816867
19	0x3e51c7f3	0.20486431
20	0x3eeec965	0.46638027
21	0x3e39e5c4	0.18154055
22	0x3e042ae2	0.12906983
23	0xbe1d69fc	-0.15372461
24	0xbd5f4afa	-0.054514863
25	0x3d6117ca	0.054954328
26	0x3edd082b	0.43170294
27	0x3d33a875	0.043861825
28	0xbe640a36	-0.2226952
29	0x3ee4981e	0.44647306
30	0xbe9469d7	-0.28987
31	0x3f2c0174	0.6718972
32	0x3e8a5fd4	0.27026236
33	0xbe9e4cae	-0.30917877
34	0xbf1afc0c	-0.60540843
35	0x3eec9ac4	0.46211827
36	0xbe53b697	-0.20675121
37	0x3efd715f	0.49500558
38	0x3eb662ef	0.35622355
39	0xbe105a15	-0.14096864
40	0x3e95c46c	0.2925142
41	0x3de37847	0.111069255
42	0x3ebeff75	0.37304273
43	0x3ebf054a	0.37308723
44	0xbf0c2ad4	-0.5475285
45	0x3e30875b	0.17239134
46	0xbeb05981	-0.34443286
47	0x3e20caaa	0.1570231
48	0x3daab414	0.083351284
49	0xbe7d6baa	-0.24748102
50	0xbc847c8e	-0.016172674
51	0xbedef287	-0.4354441
52	0x3f099be4	0.53753495
53	0x3ea1e8e7	0.31623003
54	0xbc919921	-0.017773213
55	0xbe6d3cae	-0.23167679
56	0xbb3496c7	-0.002755569
57	0xbe0e0c4d	-0.1387188
58	0x3e15bcd4	0.14622813
59	0xbb312d71	-0.0027035142
60	0xbe1393df	-0.14411877
61	0xbe426c1b	-0.18986551
62	0xbbb73d9b	-0.0055920607
63	0x3e9eb856	0.31000012

encoder.fc_edge.weight f4 [16, 2]
0	0x3f83e2c1	1.0303575
1	0xbf8b9577	-1.0904988
2	0x3f824c93	1.0179619
3	0x3e551b36	0.20811161
4	0xbf85922e	-1.0435236
5	0xbdf4ba6a	-0.11949618
6	0x3faaae7f	1.3334502
7	0xbf61d9f5	-0.882232
8	0xbfa7aa7c	-1.3098903
9	0x3f1f1bdb	0.6215188
10	0x3f8856ee	1.0651529
11	0xbf008099	-0.50196224
12	0x3faa9714	1.3327355
13	0x3dc332b2	0.09531154
14	0x3fc067c7	1.503167
15	0xbe57cd96	-0.21074519
16	0xbfaa6f09	-1.3315135
17	0xbf4bb5c0	-0.79574203
18	0x3e84057c	0.25785434
19	0xbfadbf38	-1.357398
20	0x3fb9c6d0	1.4513798
21	0xbeb9fab4	-0.36324084
22	0xbf10c6d0	-0.56553364
23	0x3f3fd3c1	0.74932486
24	0x3f7353c0	0.9504967
25	0xbf8b21d1	-1.0869695
26	0xbf80d632	-1.0065367
27	0xbea1b95e	-0.31586736
28	0xbfdd0344	-1.7266622
29	0xbf198a0b	-0.5997626
30	0xbf8c0ea9	-1.0941974
31	0x3f7bed28	0.98408747

encoder.fc_edge.bias f4 [16]
0	0x3c7889ce	0.015169574
1	0x3f432bbe	0.7623862
2	0x3f91ee6a	1.1400883
3	0xbf00ce55	-0.5031484
4	0x3f02700d	0.50952226
5	0x3f4bb5f0	0.7957449
6	0x3f3d7791	0.7401057
7	0x3df9c184	0.12195113
8	0x3d82ef2c	0.06393275
9	0xbf3bc58a	-0.73348296
10	0xbe6adda8	-0.22936118
11	0xbf67f489	-0.90607506
12	0xbf02920b	-0.51004094
13	0x3f856d46	1.0423973
14	0x3e884074	0.26611674
15	0x3e9692d1	0.29408887

encoder.bn.weight f4 [64]
0	0x3f51e2d1	0.8198672
1	0x3f12d0ed	0.57350045
2	0x3e4f7bd8	0.20262086
3	0x3f4c903a	0.7990757
4	0x3f33c0bd	0.7021597
5	0x39039664	0.00012549158
6	0x3f18edfd	0.5973814
7	0x3ef2bc7c	0.47409427
8	0x3f7de47c	0.99176764
9	0x3f22fe44	0.6366923
10	0x3f13aee1	0.5768872
11	0x3f5f4605	0.87216216
12	0xba599039	-0.0008299384
13	0x3f12330c	0.5710914
14	0x3f3fd623	0.7493612
15	0x3f1c8f87	0.61156505
16	0x3f49f3f2	0.78887856
17	0x3e8d2189	0.27564648
18	0x3e7d6eae	0.24749252
19	0x3ebd4a60	0.36970806
20	0x3f5592bb	0.8342702
21	0xba6944f1	-0.00088985177
22	0x3efa7429	0.48916748
23	0x3e971a9d	0.29512492
24	0x3f58f8a5	0.847544
25	0xba80ebac	-0.0009835861
26	0x3e243a19	0.16037787
27	0xbaaca12e	-0.0013170594
28	0x3edeaae8	0.43489766
29	0x3f3090e9	0.68971115
30	0x3e6f1ddc	0.23351234
31	0x3db6b993	0.08922114
32	0x3f52d7d2	0.82360566
33	0x3f63024c	0.8867538
34	0x3f18433a	0.5947758
35	0x3f448518	0.76765585
36	0xba3e03c0	-0.00072484836
37	0x3ecd6de3	0.401229
38	0x3f505241	0.8137551
39	0x3ef2fd77	0.47459003
40	0x3f05e2e3	0.52299327
41	0x3ef7bf0c	0.48387945
42	0x3e40cf11	0.1882899
43	0x3f3f325e	0.7468623
44	0x3f2fd113	0.68678397
45	0x3f316ce7	0.69306797
46	0x3e2b4780	0.16726494
47	0x3e2b0413	0.16700773
48	0x3c0a76e1	0.0084511945
49	0x3f04b503	0.518387
50	0x3f23eb5e	0.64031017
51	0xbb38eb2c	-0.0028216345
52	0x3f06fe92	0.52732193
53	0x3ede876f	0.43462703
54	0x3f87ef82	1.0619967
55	0x3f2d063f	0.67587656
56	0x3f68c230	0.90921307
57	0x3ef8348a	0.48477584
58	0x3f459db7	0.7719378
59	0x3f21a505	0.63142425
60	0x3f144b60	0.57927513
61	0x3f4d6792	0.8023616
62	0x3a0af864	0.00053012953
63	0x3e4cdbc8	0.20005715

encoder.bn.bias f4 [64]
0	0xbcb0e2fb	-0.021592608
1	0x3dd4b5fc	0.10386273
2	0xbdeb1b8c	-0.114798635
3	0x3c7082fc	0.014679667
4	0xbccdb9e2	-0.02511305
5	0xb936bfd6	-0.00017428337
6	0xbcc7907e	-0.024360891
7	0x3e862bdd	0.2620534
8	0x3caf79c1	0.021420361
9	0x3c8e5b4a	0.017377514
10	0x3d7bd0ef	0.06147855
11	0xbcd8aa8c	-0.02644851
12	0x3a49884a	0.000768785
13	0x3cdca0f1	0.026932212
14	0x3b95491d	0.004555835
15	0x3d98c2c0	0.074590206
16	0x3c950349	0.018190043
17	0x3e02ccc1	0.1277342
18	0xbd219109	-0.039444957
19	0xbd30ad15	-0.043133814
20	0x3d40f544	0.047108904
21	0xb99f0528	-0.00030330685
22	0x3e195d38	0.14976966
23	0xbb89048a	-0.0041814493
24	0xbe0b5887	-0.13607989
25	0x3a9e686a	0.0012085561
26	0xbcf73f9e	-0.030181702
27	0x39cbfe56	0.00038908672
28	0xbb5172c9	-0.0031959286
29	0xbd14fcf7	-0.03637406
30	0x3de461fc	0.111515015
31	0x3d080ec0	0.03321719
32	0x3d198e64	0.03748931
33	0x3afa6f8d	0.0019106731
34	0xbe86ca3f	-0.26326177
35	0x3b47cf32	0.0030488488
36	0x3a01aaad	0.0004946392
37	0xbd120d0d	-0.035656977
38	0xbd0a96b8	-0.033835143
39	0xbd6e6565	-0.058202166
40	0xbce996fc	-0.028514378
41	0xbe09c361	-0.13453437
42	0xbd18b672	-0.03728337
43	0xbb8c7c3f	-0.004287272
44	0x3d57bfab	0.052673023
45	0xbcdc4496	-0.026888173
46	0xbd2443e2	-0.0401038
47	0x3cba5ae7	0.022748424
48	0x3c010325	0.007874285
49	0xbd72ee5a	-0.05930934
50	0x3dfbda78	0.12297529
51	0xba5fac70	-0.000853247
52	0x3d6fb186	0.05851891
53	0x3d86fadc	0.065908164
54	0x3dc81cc2	0.0977111
55	0x3e1a9002	0.15093997
56	0xbc468419	-0.0121164555
57	0xbd90479e	-0.0704491
58	0xbc2ee8b8	-0.010675602
59	0x3d1366d1	0.035986725
60	0x3d8fc689	0.070202895
61	0x3c9fa959	0.019489931
62	0x390a60a2	0.00013196704
63	0x3bebd8d4	0.007197479

encoder.bn.running_mean f4 [64]
0	0x3e5ede80	0.21764565
1	0x3ef68986	0.48151797
2	0xbf34c967	-0.70619816
3	0x3e0b9ef7	0.13634859
4	0xbd941cf8	-0.07232088
5	0xbf9127ae	-1.1340234
6	0xbe2d9428	-0.16951048
7	0x3ef8e525	0.48612323
8	0xbbc7c368	-0.0060962923
9	0x3e3a827b	0.18213837
10	0xbea9e05f	-0.33178994
11	0xbe94b648	-0.2904532
12	0x3ecf20cd	0.40454713
13	0x3e30bfb4	0.17260629
14	0x3f2ff576	0.6873392
15	0x3f4b48b7	0.7940783
16	0xbc9b2965	-0.018940637
17	0xbdfde2f1	-0.12396801
18	0xbfc957c1	-1.5729905
19	0xbe6d2341	-0.2315798
20	0x3f1afae0	0.60539055
21	0xbf29a7a7	-0.6627144
22	0x3ea98829	0.33111694
23	0xbf24b861	-0.6434384
24	0xbd92b783	-0.07163908
25	0x3dd1151e	0.10209106
26	0xbdcf5979	-0.101244874
27	0x3e134e64	0.14385372
28	0x3d200bab	0.039073627
29	0x3d25710a	0.040391006
30	0xbe0555cb	-0.13021009
31	0x3f8fc124	1.1230817
32	0x3e8cb02c	0.27478158
33	0xbe4d0b72	-0.20023897
34	0xbf1f773d	-0.6229132
35	0x3efba8ab	0.4915212
36	0x3e05502e	0.13018867
37	0x3cab7df8	0.02093409
38	0x3eb0709a	0.34460908
39	0xbe895ac5	-0.26827064
40	0xbe2c39cd	-0.16818924
41	0xbea8c4d8	-0.3296268
42	0x3d0a1601	0.03371239
43	0x3e9fad98	0.3118713
44	0xbea8968e	-0.32927364
45	0xbf3a26d9	-0.72715527
46	0xbf24c191	-0.6435786
47	0x3f2ae745	0.6675914
48	0x3f9f5ca4	1.2450147
49	0xbebf6822	-0.37384135
50	0x3f0ade92	0.54245865
51	0xbecaadd2	-0.3958574
52	0x3f63c199	0.8896728
53	0x3ea5f571	0.3241382
54	0xbcb3d20d	-0.021950746
55	0x3d867db3	0.06566944
56	0xbddba955	-0.10725657
57	0x3f43a1a9	0.7641855
58	0x3e9cfb03	0.30660257
59	0x3e8f5a3b	0.27998528
60	0xbd37b65a	-0.04485164
61	0xbe458df5	-0.19292434
62	0xbf9723f1	-1.1807843
63	0x3eb13d1e	0.3461694

encoder.bn.running_var f4 [64]
0	0x3da8efa4	0.08248833
1	0x3e74078d	0.23831005
2	0x3ddb2b01	0.10701562
3	0x3be77004	0.007062914
4	0x3bfcff2c	0.0077208485
5	0x3e9930fb	0.29920182
6	0x3be97100	0.0071240664
7	0x3d17cbf0	0.037059724
8	0x3ac1f2df	0.0014797113
9	0x3c89df7c	0.016830198
10	0x3bbbbf4a	0.0057295905
11	0x3bc87f20	0.00611867
12	0x3a49acf6	0.00076933147
13	0x3cc2db0b	0.023786088
14	0x3b81b00d	0.0039577545
15	0x3da88624	0.0822871
16	0x3bdccd0e	0.0067383116
17	0x3c03212c	0.008003514
18	0x3e3b7a52	0.1830838
19	0x3d6777b8	0.056510657
20	0x3b969627	0.0045955363
21	0x3e72cc55	0.23710759
22	0x3c6767c8	0.0141238645
23	0x3da25eb4	0.079282194
24	0x3b602685	0.0034202647
25	0x3b39f26a	0.002837325
26	0x3db2daf7	0.087331705
27	0x3c1eb2c8	0.009686179
28	0x3c8de62b	0.017321667
29	0x3d7329f2	0.059366174
30	0x3c61810d	0.013763678
31	0x3d8eae7c	0.06966874
32	0x3b90bc47	0.0044169757
33	0x3c039595	0.008031269
34	0x3b3d64d6	0.0028899214
35	0x3afb95d2	0.001919443
36	0x3d24a588	0.040196925
37	0x3da33509	0.079691
38	0x3b5a009c	0.0033264523
39	0x3c29e97c	0.010370608
40	0x3d988134	0.074465185
41	0x3d621262	0.055193312
42	0x3d1a3c27	0.037655022
43	0x3b74f9ea	0.0037380406
44	0x3c5b751d	0.013394621
45	0x3e7314d6	0.23738417
46	0x3d0e7a81	0.034784798
47	0x3da8910d	0.08230791
48	0x3ed3fd56	0.41404217
49	0x3c0c3f1a	0.008559966
50	0x3dbb8057	0.09155338
51	0x3ad974a8	0.0016590552
52	0x3d27543c	0.040851817
53	0x3aee1a73	0.0018165841
54	0x3ba58208	0.0050509013
55	0x3d02eeb4	0.031965926
56	0x3bedd884	0.0072584767
57	0x3e6fd730	0.23421931
58	0x3c3b4c38	0.011431746
59	0x3cb1c4ad	0.021700228
60	0x3ba48a91	0.005021401
61	0x3b4132e5	0.0029479798
62	0x3edcae4b	0.43101725
63	0x3b5e5f60	0.003393136

encoder.convs.0.fc.weight f4 [64, 64]
0	0xbd6e3315	-0.058154184
1	0x3d9e8e2c	0.07741961
2	0xbdc79965	-0.097460546
3	0xbe0028a9	-0.1251551
4	0x3da67166	0.08127098
5	0x3abdff70	0.0014495682
6	0x3c7b6c11	0.015345589
7	0x3e18ede1	0.14934494
8	0x3c66939f	0.014073282
9	0x3d181df2	0.037137933
10	0xbd57edca	-0.052717008
11	0xbdbf775a	-0.093489364
12	0xbca51419	-0.020151185
13	0xbe144837	-0.14480673
14	0x3e255d3c	0.16148847
15	0xbd4cf17e	-0.050034992
16	0xbdf3efa7	-0.119109444
17	0xbd978488	-0.07398325
18	0xbbd39cff	-0.0064579244
19	0x3d13b780	0.03606367
20	0xbdc32927	-0.095293336
21	0xbd0f1dbc	-0.034940466
22	0xbd726a2a	-0.059183277
23	0x3d9dbb45	0.077017345
24	0x3d346397	0.04404029
25	0x3d01d983	0.031701576
26	0xbd86b701	-0.06577874
27	0x3cce63cd	0.025194073
28	0xbd9c5e96	-0.07635228
29	0x3c5237a9	0.012830653
30	0x3d94d1e5	0.07266597
31	0xbc9dca83	-0.019261604
32	0xbc71b1bf	-0.014751851
33	0xbce004fb	-0.027346125
34	0xbdc3a50f	-0.09552967
35	0xbd71591f	-0.058922883
36	0x3ba83225	0.005132931
37	0xbd2aef88	-0.04173234
38	0x3dac56c2	0.08414985
39	0x3d24e5e4	0.040258303
40	0xbd93fc0b	-0.07225808
41	0xbd49ae99	-0.049238775
42	0xbd78db16	-0.06075581
43	0x3dc16168	0.09442407
44	0xbdf154c7	-0.11783748
45	0x3ca54491	0.020174297
46	0x3dc68580	0.09693432
47	0x3b74b453	0.0037338927
48	0x3d9708f9	0.07374758
49	0x3cc57e5c	0.024108104
50	0xbb406ce7	-0.0029361786
51	0xbac57c16	-0.0015066888
52	0xbe16361d	-0.1466908
53	0x3be7cccb	0.007073974
54	0xbcd550bc	-0.026039474
55	0xbc8a975a	-0.016917873
56	0x3e36ad0e	0.17839453
57	0xbddb7d5c	-0.1071727
58	0xbd2f8e26	-0.042860173
59	0xbe27c886	-0.16385087
60	0xbc52cf4f	-0.012866809
61	0x3bf08c95	0.0073409774
62	0x3dc708cc	0.09718475
63	0xbc3a8ed4	-0.011386592
64	0x3c7b3a6c	0.015333753
65	0xbdb1151d	-0.08646605
66	0xbda45e30	-0.08025777
67	0x3e116fc9	0.14202799
68	0xbda014a0	-0.07816434
69	0x3c6d8180	0.014496207
70	0x3d2d400f	0.04229742
71	0xbd2a3b17	-0.04156026
72	0xbe263c6e	-0.1623399
73	0x3e1a4860	0.15066671
74	0xbe014ae9	-0.12626232
75	0xbd926ca5	-0.071496285
76	0x3c98bc7a	0.01864456
77	0xbd4cb9db	-0.049981933
78	0x3d15081b	0.036384683
79	0x3db4424c	0.088017076
80	0xbb807245	-0.003919872
81	0xbc93c375	-0.018037537
82	0xbdd63314	-0.10458961
83	0x3d8594a1	0.06522489
84	0xbd87a580	-0.066233635
85	0xbc4cacd6	-0.012492379
86	0x3d6b86cb	0.057501595
87	0xbdb23ef9	-0.08703417
88	0x3ce55be4	0.027997918
89	0xbb9247f4	-0.004464144
90	0x3d7cf101	0.061753277
91	0x3c2e4e03	0.010638717
92	0xbc549377	-0.0129746115
93	0x3bdfbffd	0.0068283067
94	0xbbc27275	-0.0059340545
95	0x3d9492f4	0.072545916
96	0x3dd7c67f	0.10535907
97	0xbc7690f7	-0.015049211
98	0x3d4aed61	0.04954279
99	0xbc74b5f7	-0.014935962
100	0xbc771ea7	-0.015082992
101	0xbdbfbaa4	-0.09361771
102	0x3bbaefdc	0.005704863
103	0x3ccb9cf9	0.024855124
104	0xbc7b2cd2	-0.01533051
105	0x3cd32f26	0.025779318
106	0xbd284711	-0.0410834
107	0xbde51b30	-0.11186826
108	0xbdea6dbd	-0.11446712
109	0xbd97055b	-0.07374068
110	0xbe0913b6	-0.13386425
111	0x3e065e85	0.13121994
112	0x3da74a4f	0.0816847
113	0x3c29b739	0.010358625
114	0xbc696bd7	-0.014246902
115	0x3b9ae841	0.004727394
116	0x3cc4b86a	0.024013717
117	0x3dd95588	0.10612017
118	0x3dab7736	0.08372347
119	0xbcaf3c54	-0.021391071
120	0xbd0d9bf7	-0.034572568
121	0xbdc7f0ee	-0.097627506
122	0xbcd7a600	-0.026324272
123	0xbd7d9024	-0.06190504
124	0x3de0406b	0.10949787
125	0xbe33ad11	-0.17546488
126	0x3c870e77	0.01648639
127	0x3deea6b2	0.11652888
128	0xbd8f4c7c	-0.0699701
129	0xbdd72b09	-0.10506255
130	0x3e1ec828	0.15506041
131	0x3e21ec4c	0.15812796
132	0x3dcfec18	0.10152453
133	0x3bed4d47	0.007241878
134	0xbe35a8dc	-0.17740196
135	0xbdb80235	-0.08984796
136	0xbdeff048	-0.11715752
137	0xbd22ed60	-0.03977716
138	0xbd4e5c4f	-0.050381
139	0xbc807910	-0.015682727
140	0x3babe348	0.0052456
141	0x3dc1d641	0.09464694
142	0x3c5e144e	0.013554646
143	0x3cb4307c	0.021995775
144	0x3e05887a	0.13040343
145	0xbe1201e2	-0.1425853
146	0xbb5ca3b3	-0.0033666908
147	0x3deb2413	0.1148149
148	0xbde54146	-0.111940905
149	0xbc53be6b	-0.012923817
150	0x3ca4dbf4	0.020124413
151	0xbd03deaf	-0.03219479
152	0x3df16db7	0.117885046
153	0x3b931dc9	0.0044896347
154	0xbcab5a6f	-0.020917146
155	0xbd518a2c	-0.05115716
156	0xbd8cc0a6	-0.06872682
157	0x3c99d503	0.01877833
158	0xbda25db8	-0.07928032
159	0xbd98b9a3	-0.074572824
160	0x3d4a4714	0.04938419
161	0x3df4690b	0.11934098
162	0x3c8895a3	0.016672915
163	0xbe0baff2	-0.13641337
164	0xbc997b90	-0.018735677
165	0x3de4a74f	0.11164724
166	0xbe048edb	-0.1294512
167	0xbd9939ea	-0.07481749
168	0xbd2f5a4b	-0.04281072
169	0x3dc32703	0.09528925
170	0x3de35210	0.110996366
171	0x3d6fd816	0.058555685
172	0x3d25c5b9	0.040471766
173	0x3e149fd8	0.145141
174	0x3e01819d	0.126471
175	0xbe18a1f7	-0.14905535
176	0xbe319649	-0.17342485
177	0xbd1d0b74	-0.038341
178	0xbe0d58fd	-0.13803478
179	0xbc770ec5	-0.015079205
180	0xbd974e3a	-0.073879674
181	0xbe179862	-0.14804223
182	0x3deca47d	0.11554811
183	0xbdc8d9cb	-0.09807166
184	0xbe6c7633	-0.23091964
185	0xbdba713f	-0.09103631
186	0xbdd80a5d	-0.10548852
187	0xbd13308e	-0.035934977
188	0xbddb2d40	-0.1070199
189	0xbd0da216	-0.034578405
190	0x3e1fe558	0.15614831
191	0x3d55068e	0.052008204
192	0xbde3f412	-0.11130537
193	0x3d8055cd	0.06266365
194	0xbd9b3dec	-0.0758017
195	0xbddc1cac	-0.10747656
196	0x3da88598	0.08228606
197	0x3c2463a2	0.01003352
198	0x3d3711be	0.044694655
199	0xbc31023a	-0.0108037535
200	0x3ed18482	0.40921408
201	0xbe7518bb	-0.23935215
202	0x3d92e6ca	0.07172926
203	0xbcf3b766	-0.029750537
204	0x3d08374e	0.033255868
205	0x3c789e16	0.015174409
206	0x3d8b504f	0.06802427
207	0xbd791ee2	-0.060820468
208	0xbda00786	-0.07813935
209	0x3d6aec13	0.057354044
210	0xbbbf9e4b	-0.0058477274
211	0x3dc0f9a2	0.09422614
212	0xbdecf2db	-0.115697585
213	0x3db9f3a3	0.09079673
214	0x3cd52101	0.026016714
215	0x3dccc7c8	0.09999043
216	0xbc9749f8	-0.018467888
217	0xbbdb2b71	-0.006688528
218	0xbb4f663f	-0.0031646637
219	0x3c6f5f5c	0.014610138
220	0x3d2c2b4e	0.042033486
221	0x3c755d68	0.014975883
222	0xbd8c0483	-0.06836798
223	0xbd9950ee	-0.07486139
224	0xbd8d113c	-0.06888053
225	0xbdf2604b	-0.11834773
226	0xbcb8db54	-0.022565521
227	0x3de354da	0.111001685
228	0xbd62b3d7	-0.05534729
229	0x3c0719a8	0.008245863
230	0x3da798a9	0.081834145
231	0x3d9d7c49	0.07689721
232	0x3d0483a9	0.032352123
233	0xbdc75c42	-0.09734394
234	0x3b869f60	0.0041083544
235	0xbde84ba5	-0.11342553
236	0xbb3624e2	-0.002779298
237	0xbd6e64be	-0.058201544
238	0x3d3aad77	0.045575585
239	0xbcdbb194	-0.026818074
240	0xbe1047a8	-0.14089835
241	0x3da04165	0.07824973
242	0x3d8d6d2d	0.06905589
243	0x3c8a2b25	0.016866276
244	0xbd4f8c18	-0.050670713
245	0xbad53631	-0.0016266761
246	0xbdb70d8b	-0.0893813
247	0x3d939ea8	0.07207996
248	0x3e355fa1	0.17712261
249	0x3e094000	0.1340332
250	0x3dceb9da	0.10094042
251	0x3c429cb8	0.011878185
252	0xbe23980b	-0.15975969
253	0x3dd96585	0.106150664
254	0x3cc7da31	0.024396034
255	0xbde278ab	-0.11058172

encoder.convs.0.fc.bias f4 [64]
0	0x3de77b6a	0.11302836
1	0xbe488730	-0.1958282
2	0xbd71a04b	-0.058990758
3	0xbdcb8ccd	-0.09938965
4	0x3eac9193	0.33704814
5	0xbc97b0bd	-0.018516893
6	0x3cc8b8b2	0.024502132
7	0xbc2dc456	-0.010605892
8	0xbd5c67d8	-0.05380997
9	0x3c64a858	0.013956152
10	0x3e5b3cf5	0.21409972
11	0x3bfffe0c	0.007812267
12	0x3ef367aa	0.47540027
13	0x3d27f713	0.041007113
14	0xbd7ba209	-0.061433826
15	0xbd101920	-0.03518021
16	0x3e0215ff	0.12703703
17	0xbe37c689	-0.17946829
18	0x3e54d189	0.20783056
19	0xbe36cf44	-0.17852503
20	0x3c9404a7	0.018068625
21	0x3d927669	0.07151491
22	0xbe969c62	-0.29416186
23	0x3e15e786	0.146391
24	0xbbcadaad	-0.006190619
25	0x3bb1c949	0.0054256064
26	0x3c88c479	0.016695248
27	0x3ea1db7d	0.3161277
28	0xbe39ac57	-0.18132149
29	0xbef12a53	-0.47102603
30	0xbc37c5a2	-0.011216553
31	0x3e208c8b	0.15678613
32	0xbd41e94b	-0.047341626
33	0xbe161db5	-0.1465977
34	0xbe3d5d9e	-0.18492743
35	0xbeff7646	-0.49894923
36	0xbd0e3cc5	-0.034725923
37	0xbe1b3cfa	-0.1515998
38	0x3e1da4f8	0.15394962
39	0xbd210d27	-0.039319184
40	0x3df1df00	0.11810112
41	0xbe2af859	-0.166963
42	0x3ea86239	0.32887438
43	0xbe7280bc	-0.23681921
44	0x3f0a3fc2	0.54003537
45	0xbe13c262	-0.1442962
46	0xbd2a4f22	-0.041579373
47	0xbeffcda1	-0.4996157
48	0x3e692572	0.2276819
49	0xbcb75445	-0.02237905
50	0xbe4b5e36	-0.19860157
51	0xbeabef1f	-0.33580872
52	0x3d919dc9	0.07110173
53	0x3d84c3a0	0.06482625
54	0x3d508033	0.05090351
55	0xbdc77d3d	-0.09740684
56	0x3ebf02ec	0.37306917
57	0xbe35ae57	-0.17742287
58	0xbde660ea	-0.11248954
59	0xbd1cf334	-0.038317874
60	0xbd46b3c6	-0.04851129
61	0xbec15df9	-0.37767008
62	0xbd55e630	-0.052221477
63	0xbca67ce9	-0.020323234

encoder.convs.0.attn.weight f4 [64, 144]
0	0xbd06bc57	-0.03289446
1	0x3e09869c	0.13430256
2	0xbc8b0179	-0.016968476
3	0x3e7db463	0.24775843
4	0xbeb26050	-0.34839106
5	0x3db891f8	0.09012216
6	0xbc9d39b4	-0.019192554
7	0xbede4862	-0.434146
8	0x3e4ae2d0	0.19813085
9	0x3d7a0d12	0.06104762
10	0xbeb84c88	-0.3599589
11	0xbdb6f7d9	-0.08933992
12	0x3e3ff88d	0.18747158
13	0x3d385f5a	0.04501281
14	0x3e1d3e62	0.15355828
15	0xbd7540e6	-0.059876345
16	0x3d3182b5	0.043337543
17	0xbeacfdfb	-0.33787522
18	0xbdbaad8b	-0.09115132
19	0xbcd4b00e	-0.025962856
20	0xbb0f89f5	-0.0021902297
21	0x3e1bf92d	0.15231772
22	0x3eb333de	0.3500051
23	0xbea1c7ce	-0.3159775
24	0xbc9b87bd	-0.018985623
25	0x3d93367d	0.07188127
26	0x3cf73830	0.03017816
27	0x3d975e2f	0.07391011
28	0x3e43ccb0	0.19121051
29	0x3bd08551	0.006363549
30	0xbe289189	-0.16461767
31	0xbe8f273b	-0.27959618
32	0x3c21aad9	0.009867393
33	0x3e71a0ea	0.2359654
34	0x3c2e540f	0.010640158
35	0xbe4bf4bd	-0.19917579
36	0xbdaacffc	-0.08340451
37	0x3e2dff37	0.16991888
38	0xbdc987fa	-0.098403886
39	0x3e502449	0.20326342
40	0xbe3c6106	-0.18396387
41	0x3d978a8d	0.07399473
42	0x3c84a488	0.016191736
43	0x3eb57785	0.3544275
44	0x3ea7e715	0.3279349
45	0x3c326aba	0.010889703
46	0xbc6f60f8	-0.0146105215
47	0x3ec70401	0.38870242
48	0x3cd99136	0.0265585
49	0xbe6314d6	-0.22175917
50	0x3e585796	0.21127161
51	0x3e39886a	0.18118444
52	0xbe7fda4b	-0.24985616
53	0x3e5d8184	0.21631438
54	0xbe9a5f4d	-0.30150834
55	0xbe6c16f7	-0.23055635
56	0xb81cc34a	-3.7375175e-05
57	0xbce7359b	-0.028223803
58	0xbc5cb10b	-0.013469945
59	0xbdb5a065	-0.088684835
60	0x3cc79610	0.024363548
61	0xbeab7fd8	-0.33495975
62	0x3e03a0c9	0.12854303
63	0xbe915d45	-0.28391472
64	0x3dca1aa3	0.09868362
65	0x3d803f26	0.062620446
66	0x3c336555	0.010949452
67	0x3cb9f9f2	0.022702191
68	0xbdc43841	-0.09581042
69	0xbb6c54db	-0.003606132
70	0x3dee4f1f	0.11636185
71	0xbdeda787	-0.11604219
72	0x3d9d7e10	0.0769006
73	0x3de0d619	0.10978336
74	0xbd249830	-0.0401842
75	0xbd8bb0d5	-0.068208374
76	0xbbe8f4a7	-0.007109243
77	0xbcba520d	-0.022744203
78	0xbd30b83c	-0.04314445
79	0x3bb52655	0.005528251
80	0x3a980715	0.001159879
81	0x3d43a10c	0.04776101
82	0xbda82118	-0.08209437
83	0xbdacaa97	-0.08430975
84	0xbd87ed3a	-0.06637044
85	0x3df91fc3	0.12164261
86	0x3d24c063	0.040222537
87	0xbcf3b70b	-0.029750368
88	0xbdce2dc7	-0.10067325
89	0xbbacc340	-0.005272299
90	0x3d23bff1	0.03997797
91	0xbdc49b6f	-0.09599959
92	0x3d372f45	0.044722814
93	0x3c8fff67	0.01757784
94	0x3d04dfef	0.032440122
95	0xbd923b3f	-0.071402065
96	0x3d544d82	0.05183173
97	0x3ddf85a8	0.10914165
98	0x3c85e861	0.016346158
99	0xbc8f6717	-0.017505212
100	0x3e68da53	0.22739534
101	0x3df77058	0.12081975
102	0x3d4c1fc2	0.049834974
103	0xbdbbb3ab	-0.09165128
104	0xbb14a001	-0.0022678378
105	0x3e1dfad5	0.15427716
106	0xbc883534	-0.016626932
107	0x3dbb3f7a	0.091429666
108	0x3e080691	0.13283755
109	0xbd9d8852	-0.07692017
110	0x3e2028bf	0.15640543
111	0x3dc62751	0.09675468
112	0xbc417d17	-0.011809609
113	0x3df09766	0.11747627
114	0xbd1753c2	-0.036945112
115	0x3d7c33c4	0.061572805
116	0x3dcc931a	0.09988995
117	0xbcbac87d	-0.022800678
118	0x3d1e4abe	0.0386455
119	0xbdd9b2d6	-0.106298134
120	0xbdc317ab	-0.09525999
121	0x3e26491d	0.16238828
122	0x3d7a7ae8	0.06115237
123	0xbcbca25e	-0.023026641
124	0xbd112f39	-0.035445426
125	0x3cdc318e	0.026879098
126	0x3dc59355	0.09647242
127	0x3ba6f1a8	0.0050947256
128	0xbfa2caeb	-1.2718176
129	0xbe7d002d	-0.24707098
130	0xbc454b38	-0.012041859
131	0xbf324ad8	-0.6964545
132	0x3f231468	0.6370301
133	0xbf374c01	-0.7160035
134	0xbf02d090	-0.5109949
135	0xbf4eb6d3	-0.8074772
136	0xbe759a01	-0.23984529
137	0xbed65f79	-0.41869715
138	0xbf920050	-1.1406345
139	0x3f2d13aa	0.6760813
140	0xbf1bed05	-0.6090854
141	0xbdcbbd7d	-0.099482514
142	0x3d2e57b8	0.042564124
143	0x3f5e6a5f	0.8688106
144	0x3e354a98	0.17704237
145	0xbd80f3c8	-0.062964976
146	0xbe3411a0	-0.17584848
147	0x3d57060e	0.05249601
148	0xbe4cbb37	-0.19993292
149	0xbe85139a	-0.25991517
150	0xbe61e700	-0.22060776
151	0xbdaa47ab	-0.08314451
152	0x3dd4da6c	0.10393223
153	0xbe0b402f	-0.13598703
154	0xbdcbe98e	-0.099566564
155	0xbcac13bc	-0.021005504
156	0x3de18495	0.11011616
157	0xbc27e767	-0.010248042
158	0x3d94469d	0.07240031
159	0x3d9ba7c0	0.07600355
160	0xbe012aa7	-0.12613927
161	0xbdfdeec9	-0.1239906
162	0xbcccae75	-0.024985531
163	0x3ddab72a	0.10679467
164	0xbdea41fb	-0.11438366
165	0xbdb22a7c	-0.086995095
166	0x3e18756d	0.14888544
167	0xbdc1e3e7	-0.09467297
168	0xbdf756ba	-0.12077089
169	0x3e059835	0.13046344
170	0x3e78254b	0.24232976
171	0xbd46dd06	-0.048550628
172	0x3c054da4	0.008136187
173	0xbd2ac745	-0.041693944
174	0xbd819664	-0.06327513
175	0xbe333f36	-0.17504582
176	0xbd9ac8de	-0.075578436
177	0x3de4d0a8	0.111726105
178	0xbe49bd37	-0.19701086
179	0xbe05d2fb	-0.13068764
180	0xbd98aceb	-0.074548565
181	0x3d0cee4e	0.034406953
182	0xbd63ea07	-0.055643108
183	0x3daa8838	0.08326763
184	0x3d342ee3	0.043990027
185	0xbd8cd7d7	-0.06877106
186	0xbe8d9ada	-0.27657205
187	0x3ca4bf94	0.020110883
188	0x3e1d422e	0.15357277
189	0x3d4e2d81	0.050336365
190	0xbecefe07	-0.40428182
191	0xbbdd33d7	-0.0067505646
192	0xbd841d1b	-0.06450864
193	0xbd5ce556	-0.05392965
194	0xbb0386eb	-0.002006943
195	0xbcc4e56f	-0.024035184
196	0xbe5f2ea6	-0.21795139
197	0xbe103aea	-0.14084974
198	0xbda8e78e	-0.082472906
199	0xbbd60777	-0.0065316516
200	0xbe2a16af	-0.16610216
201	0x3d51997a	0.051171757
202	0x3d77cd86	0.060498737
203	0xbd6871e7	-0.05674925
204	0x3da9ca2b	0.082905136
205	0xbe60f01a	-0.21966591
206	0xbdb1b7cd	-0.08677635
207	0x3db81506	0.08988385
208	0x3d510b5d	0.051036227
209	0x3b74a5ac	0.0037330193
210	0x3e364431	0.1779945
211	0xbe0affe3	-0.13574176
212	0x3d29984d	0.04140501
213	0xbe110d2c	-0.14165181
214	0xbdad0506	-0.08448224
215	0xbd095e7c	-0.033537373
216	0x3ddd02d5	0.10791556
217	0x3e1e64c7	0.15468131
218	0x3c9566d4	0.018237509
219	0x3dc122a1	0.09430433
220	0x3bd46a94	0.0064824317
221	0xbba4683f	-0.00501731
222	0xbdc6f357	-0.09714382
223	0x3d345a96	0.044031702
224	0x3dbf6cd5	0.0934693
225	0xbda324c8	-0.07966
226	0x3d686086	0.056732677
227	0x3ea75470	0.32681608
228	0x3cd7e802	0.026355747
229	0x3e248e77	0.16069971
230	0x3cb7c8a0	0.022434533
231	0x3daeb39b	0.08530351
232	0xbe02e8f4	-0.12784177
233	0xbe255121	-0.1614423
234	0x3d659fd1	0.056060616
235	0xbe800885	-0.250065
236	0xbd26c112	-0.04071147
237	0x3da0794c	0.078356355
238	0x3e4f83f6	0.20265183
239	0x3e08584c	0.13314933
240	0xbe2a3857	-0.16623054
241	0x3d9fde96	0.07806127
242	0xbe2ea533	-0.17055206
243	0x3e6cdfc5	0.23132236
244	0x3e11a2f2	0.14222315
245	0x3e049d8e	0.12950727
246	0xbd07ee48	-0.033186227
247	0x3e392ec9	0.18084253
248	0xbd9aa03e	-0.07550095
249	0x3dea7e94	0.11449924
250	0xbd9fa79e	-0.07795642
251	0xbe247beb	-0.16062896
252	0xbca2e1db	-0.019883087
253	0x3e6ce9ca	0.23136058
254	0xbbc4ad2b	-0.0060020885
255	0x3cf8b944	0.030361779

encoder.convs.0.attn.bias f4 [64]
0	0xbe4cfd2a	-0.2001845
1	0xbec2762d	-0.37980786
2	0xbf147bbd	-0.5800131
3	0xbeb05608	-0.34440637
4	0xbd7abb7a	-0.061213948
5	0x3c849c7d	0.0161879
6	0xbec95bee	-0.3932795
7	0xbe83adb3	-0.2571846
8	0xbf89f84c	-1.0778899
9	0xbe576159	-0.21033229
10	0xbd525877	-0.051353898
11	0xbe1044a9	-0.14088692
12	0xbdc85bb0	-0.09783113
13	0xbeff57e6	-0.4987175
14	0xbe142e6e	-0.14470837
15	0xbe87aa56	-0.26497144
16	0xbeb541de	-0.35401815
17	0xbd42d5bb	-0.04756711
18	0xbd75f1c0	-0.060045004
19	0xbeb8710b	-0.36023745
20	0xbf36ff4c	-0.714833
21	0xbdd67dbc	-0.10473201
22	0xbe96edc4	-0.29478276
23	0xbe515c56	-0.2044538
24	0xbe0b0894	-0.13577491
25	0xbe235ec7	-0.15954123
26	0xbe0d8b43	-0.13822655
27	0xbe340b59	-0.17582454
28	0xbcf4c291	-0.029877933
29	0xbeb716b7	-0.35759518
30	0xbf20c46e	-0.6279973
31	0xbde7e877	-0.11323636
32	0xbf1519d6	-0.5824255
33	0x3d05cfb7	0.032668795
34	0x3d85b463	0.06528547
35	0xbefe4ad3	-0.4966646
36	0xbf1cff71	-0.6132727
37	0xbe7e12b7	-0.24811827
38	0xbddb993e	-0.10722588
39	0xbea9eda7	-0.33189127
40	0x3cae24f3	0.021257853
41	0x3ea46d1c	0.32114494
42	0x3ea48aa1	0.32137015
43	0xbd663996	-0.056207262
44	0xbeea7044	-0.45788777
45	0xbe69e6d6	-0.22841963
46	0x3dfbab92	0.12288584
47	0xbcad07b1	-0.021121832
48	0xbdf52f22	-0.119718805
49	0xbdd542b2	-0.10413112
50	0x3e97285f	0.29522988
51	0xbddc9bdd	-0.10771916
52	0xbdc9d57c	-0.09855172
53	0xbe7ed970	-0.24887633
54	0xbe8c80cc	-0.27442014
55	0xbf2954dc	-0.6614511
56	0x3bf23fc0	0.0073928535
57	0xbe2d1914	-0.16904098
58	0xbe82193c	-0.25409877
59	0x3d0b73ba	0.034045912
60	0xbef7475a	-0.48296624
61	0x3ef324a4	0.47488892
62	0x3dcea290	0.100896
63	0xbf458afd	-0.77165204

encoder.convs.1.fc.weight f4 [64, 64]
0	0x3e01cbd2	0.12675408
1	0x3e50aa6d	0.20377512
2	0xbeed7f31	-0.46386102
3	0x3d9f1aa0	0.0776875
4	0x3e2abacc	0.1667282
5	0xbda3f5ae	-0.08005844
6	0x3df7f371	0.1210698
7	0xbe34fc91	-0.17674471
8	0x3e0f11b3	0.13971595
9	0x3e0d0b2d	0.13773794
10	0x3e5654bc	0.20930761
11	0x3da91def	0.082576625
12	0x3e4d8535	0.20070346
13	0x3c689e42	0.014197888
14	0xbe0832f0	-0.13300681
15	0xb9b70fae	-0.00034916162
16	0x3d048dfc	0.03236197
17	0xbd3a9eb2	-0.0455615
18	0x3dcb41b1	0.09924639
19	0xbde8456a	-0.11341365
20	0xbde8c51d	-0.113657214
21	0x3e135e3a	0.14391413
22	0x3d5cee06	0.053937934
23	0xbda7cdd8	-0.081935585
24	0x3d664290	0.056215823
25	0x3de5812f	0.112062804
26	0xbb1e4d87	-0.0024155097
27	0xbe116bd5	-0.14201291
28	0x3d8775b4	0.06614247
29	0xbd459837	-0.048240867
30	0xbdcba09f	-0.099427454
31	0x3e465e32	0.1937187
32	0x3db8359f	0.089946024
33	0x3e38dcdf	0.18053006
34	0xbd871a89	-0.06596858
35	0x3d9175b9	0.07102532
36	0xbe5c3d0c	-0.21507663
37	0xbd781af1	-0.06057257
38	0x3c6d1dcb	0.014472435
39	0xbd931662	-0.071820036
40	0xbc61857c	-0.013764735
41	0xbe0d499e	-0.13797614
42	0xbd371724	-0.044699803
43	0xbbc5d48a	-0.0060372995
44	0xbdcf88be	-0.101335034
45	0x3d05641f	0.032566186
46	0x3e60d0d1	0.21954657
47	0xbd36495a	-0.044503547
48	0xbdcec700	-0.1009655
49	0xbe0472dd	-0.12934442
50	0xbe4095e9	-0.18807186
51	0xbcc7caab	-0.024388632
52	0x3c1d9c6a	0.009619812
53	0xbd8f5706	-0.0699902
54	0xbe17f78a	-0.14840522
55	0x3d0de935	0.03464623
56	0xbdafd5f1	-0.08585728
57	0xbd0bbaea	-0.034113802
58	0x3e3e5d44	0.18590266
59	0xbd9d392c	-0.0767692
60	0x3d066361	0.03280962
61	0x3e1e17e3	0.154388
62	0x3dd05338	0.10172123
63	0xbd010f01	-0.03150845
64	0xbe8e02d6	-0.2773654
65	0x3e9bfb1d	0.30465022
66	0xbe2a716d	-0.16644831
67	0x3ea5073d	0.32232085
68	0xbe8f37f5	-0.2797238
69	0x3ecab167	0.39588472
70	0xbd8f7696	-0.0700504
71	0xbe12813f	-0.14307116
72	0xbb21c59f	-0.0024684442
73	0xbea17a0b	-0.31538424
74	0x3ebe7ff7	0.37207004
75	0xbe4e3f71	-0.20141388
76	0x3d48c0ec	0.04901211
77	0x3e0b429f	0.13599633
78	0x3e063977	0.13107859
79	0xbe6674c2	-0.22505477
80	0xbd66bb03	-0.056330692
81	0xbe920f06	-0.28527087
82	0x3d6137bb	0.05498479
83	0x3ebcd820	0.3688364
84	0x3cfb76d6	0.030696314
85	0xbea5a491	-0.32352117
86	0xbe35f768	-0.17770159
87	0x3e7f274d	0.24917336
88	0xbe78ea90	-0.24308228
89	0xbd20ac5c	-0.039226875
90	0xbe69f1b8	-0.22846115
91	0x395d5b8b	0.00021110305
92	0xbe47e634	-0.1952141
93	0x3c3b8d1b	0.011447216
94	0x3e50a51c	0.20375484
95	0xbd591111	-0.05299479
96	0xbdf2a574	-0.11847964
97	0xbe2918ef	-0.16513418
98	0xbe03adb3	-0.1285923
99	0xbe90392a	-0.28168613
100	0x3bc6a0eb	0.0060616634
101	0xbdffe7a3	-0.12495353
102	0xbe0d95c4	-0.13826662
103	0x3caf44fb	0.021395197
104	0xbd89a711	-0.067213185
105	0xbe80dfd8	-0.2517078
106	0x3eafd343	0.34340867
107	0x3e07d785	0.13265808
108	0xbc637033	-0.013881731
109	0x3d075b63	0.033046138
110	0xbccb0295	-0.024781505
111	0xbe0af999	-0.13571776
112	0x3ea10672	0.3145023
113	0xbd084159	-0.033265445
114	0xbe1a71ac	-0.15082425
115	0x3e24cb68	0.16093218
116	0x3e23a358	0.1598028
117	0xbc1e0fd3	-0.0096473275
118	0x3e068c19	0.1313938
119	0xbe8f9823	-0.2804576
120	0x3e19243a	0.14955226
121	0xbe80158d	-0.25016442
122	0x3d4f26e5	0.050574202
123	0xbe01fc73	-0.12693958
124	0xbe01921f	-0.12653397
125	0x3eae523b	0.34047112
126	0xbdc16b00	-0.09444237
127	0xbe308c89	-0.1724111
128	0x3e1b3cde	0.15159938
129	0xbdbfda7a	-0.09367843
130	0xbde43c67	-0.11144333
131	0xbf0023e2	-0.5005475
132	0x3e40d4b5	0.18831141
133	0xbf15c966	-0.58510435
134	0xbed5aef4	-0.4173504
135	0x3e7320b4	0.23742944
136	0x3eb55042	0.35412794
137	0x3eb1e33e	0.34743685
138	0xbe6d1dd6	-0.23155913
139	0x3bde0a8c	0.0067761596
140	0xbd673827	-0.056450035
141	0xbf011dc4	-0.50436044
142	0xbe1165d8	-0.14199007
143	0xbe80c5d9	-0.25150946
144	0x3f03fdbe	0.51559055
145	0x3e100729	0.14065231
146	0xbececfef	-0.40393016
147	0xbeb95ba8	-0.3620274
148	0x3d13c54c	0.03607683
149	0x3e2892ac	0.16462201
150	0xbdbcfae0	-0.09227538
151	0xbef292b8	-0.47377563
152	0x3dc80b3f	0.0976777
153	0x3e0a834e	0.13526651
154	0x3d2dbd68	0.04241696
155	0x3eb6d9a6	0.35712928
156	0x3e59c71b	0.21267359
157	0xbd34d518	-0.044148535
158	0x3ed2e690	0.4119153
159	0x3ee226e7	0.44170305
160	0xbe6cfa5c	-0.2314238
161	0x3ed30f26	0.41222495
162	0xbe645b2e	-0.22300407
163	0x3e1c9ee6	0.1529499
164	0x3d9ba5b1	0.075999625
165	0x3e4113bb	0.18855183
166	0xbdedf082	-0.11618139
167	0x3c8eb7c9	0.01742162
168	0x3e00fe37	0.12596975
169	0xbe964a93	-0.2935377
170	0xbdce4515	-0.1007177
171	0xbe833e15	-0.25633302
172	0x3e82dbb1	0.25558236
173	0xbe61df32	-0.22057799
174	0x3d0b74af	0.034046825
175	0x3eac72e6	0.3368141
176	0xbeb6b946	-0.35688227
177	0xbce7d978	-0.02830194
178	0x3ea2fd1c	0.31833732
179	0xbe822986	-0.25422305
180	0xbd0ed6a2	-0.03487266
181	0xbe6a3dd3	-0.22875147
182	0x3eadc1e7	0.33936998
183	0xbdab81d2	-0.08374371
184	0xbe22e89b	-0.15909044
185	0x3ea05bd7	0.31320068
186	0xbe8cbf51	-0.27489713
187	0xbd15ad71	-0.03654236
188	0x3e549a7a	0.20762053
189	0xbdc1bc07	-0.094596915
190	0xbc8faed8	-0.017539427
191	0xbdc8429d	-0.097783305
192	0x3e389aee	0.18027851
193	0x3e1a6a19	0.15079536
194	0xbdb76cec	-0.08956322
195	0x3e068792	0.13137653
196	0x3dadbd64	0.08483389
197	0xbec3f0b4	-0.3826958
198	0xbd5bbaa6	-0.0536448
199	0x3e53cbdc	0.20683235
200	0xbe2ce87f	-0.16885565
201	0xbd64e5e5	-0.055883307
202	0xbd67006a	-0.05639688
203	0x3db6315c	0.08896133
204	0xbe18e49e	-0.1493096
205	0xbe4ba233	-0.19886093
206	0xbdfee529	-0.124460526
207	0xbba5a618	-0.0050552003
208	0x3e43940b	0.19099443
209	0x3d0a2e8b	0.033735793
210	0x3d036628	0.032079846
211	0xbe8e716f	-0.27820918
212	0xbc84ffd9	-0.016235279
213	0xbe4c8a8a	-0.19974723
214	0x3d0464e7	0.03232279
215	0xbdf8ea81	-0.12154103
216	0x3d9fd82a	0.07804902
217	0xbd3e8b7f	-0.046519753
218	0x3de0956f	0.10966002
219	0x3d4da72a	0.05020825
220	0x3e1faaa6	0.15592441
221	0x3df6eb6d	0.12056623
222	0x3d048ff4	0.032363847
223	0xbd2aadc3	-0.04166962
224	0xbd8370b2	-0.06417979
225	0x3e54d1dc	0.2078318
226	0x3e1c5918	0.15268362
227	0xbe84fe58	-0.259753
228	0xbe06a7f8	-0.13150012
229	0xbda6ff55	-0.081541695
230	0x3d23ea76	0.04001852
231	0xbe530865	-0.20608671
232	0x3a8900eb	0.0010452544
233	0xbde241db	-0.11047717
234	0xbe02ac59	-0.12761058
235	0x3d1a0ff7	0.03761288
236	0x3eaacbc1	0.33358577
237	0x3e87480a	0.2642215
238	0x3dd9b83b	0.10630842
239	0x3de60828	0.112320244
240	0xbe0bb220	-0.13642168
241	0xbd64a5bd	-0.055822123
242	0x3e65459a	0.22389832
243	0xbca81846	-0.020519387
244	0x3d66f336	0.056384288
245	0xbe4cf70a	-0.20016113
246	0x3eb133e2	0.34609896
247	0xbe3cc01e	-0.18432662
248	0xbe5196fe	-0.20467755
249	0x3dcbfa1b	0.09959813
250	0x3d136c0e	0.03599172
251	0xbdd4c635	-0.103893675
252	0x3db53310	0.0884763
253	0xbea6df3f	-0.32592198
254	0x3c820a0e	0.015873935
255	0xbd56ab1f	-0.052409288

encoder.convs.1.fc.bias f4 [64]
0	0x3de1bd7b	0.11022469
1	0xbe4e10e1	-0.20123626
2	0x3e57b268	0.2106415
3	0xbd24b3b0	-0.040210426
4	0x3c030042	0.007995667
5	0xbd7e4f64	-0.06208743
6	0xbcd5c2e0	-0.0260939
7	0x3da8443f	0.08216142
8	0xbd23db4f	-0.04000407
9	0x3db0bd77	0.086298876
10	0x3cbe9443	0.023264056
11	0x3db2752a	0.087137535
12	0xbcb0890a	-0.02154972
13	0xba074ef5	-0.0005161607
14	0xbd6c12a5	-0.05763497
15	0xbd48f7df	-0.049064513
16	0x3d917277	0.071019106
17	0xbc8e5e43	-0.017378932
18	0x3cada4e1	0.021196784
19	0xbd1f4cfa	-0.03889177
20	0x3bfd03f6	0.0077214194
21	0xbe4186a7	-0.18899022
22	0x3dc41c99	0.09575767
23	0x3d9e13f9	0.07718653
24	0x3bfdcff9	0.0077457395
25	0xbddb48b0	-0.107072234
26	0xbe0d590d	-0.13803501
27	0xbd1bd8f7	-0.03804871
28	0x3dc94ff6	0.098297045
29	0xbe064df7	-0.13115679
30	0xbe2cd8f8	-0.16879642
31	0x3d801fb6	0.062560484
32	0xbbfdd18a	-0.0077459263
33	0x3d2df0be	0.042465918
34	0xbd1ec0f4	-0.038758233
35	0x3db83e95	0.089963116
36	0x3d9ca715	0.07649056
37	0x3d516a93	0.051127028
38	0x3c4654a4	0.012105141
39	0xbdc4db40	-0.09612131
40	0xbe2e6a0e	-0.17032644
41	0x3df69cb3	0.12041607
42	0xbdfdb04d	-0.12387142
43	0x3d08123e	0.033220522
44	0x3df08be6	0.117454335
45	0xbdadce89	-0.08486659
46	0x3c98882a	0.018619616
47	0xbd411412	-0.04713828
48	0x3e350b98	0.17680204
49	0x3e30181f	0.17196701
50	0x3c9427dd	0.018085415
51	0xbd7b720d	-0.061388064
52	0x3e541f07	0.20714961
53	0x3da13296	0.078709766
54	0xbdc1a6a7	-0.094556145
55	0xbd77d853	-0.060509037
56	0xbd60bca0	-0.054867387
57	0xbe0abb88	-0.135481
58	0x3d3dc924	0.0463344
59	0xbc65ac82	-0.01401818
60	0x39ef9cef	0.00045702557
61	0x3d3dfce8	0.04638377
62	0xbdbc2b83	-0.09187987
63	0x3d4447e8	0.047920138

encoder.convs.1.attn.weight f4 [64, 144]
0	0x3cbe2bed	0.023214305
1	0x3ee90cef	0.4551768
2	0xbeb8bb21	-0.36080268
3	0x3ebb99ad	0.36640683
4	0x3e1e6b04	0.1547051
5	0x3ed762b8	0.42067504
6	0xbf4afe04	-0.7929385
7	0xbd46cd61	-0.04853571
8	0x3dc62fcf	0.096770875
9	0x3dc3969e	0.09550212
10	0xbe6d29c5	-0.23160465
11	0x3ebe061d	0.3711404
12	0xbd65146e	-0.055927686
13	0xbea78d8b	-0.32725176
14	0xbe809478	-0.25113273
15	0x3cf71898	0.030163094
16	0xbe93cbc6	-0.28866404
17	0x3e1c2893	0.15249853
18	0x3e93eae6	0.2889015
19	0xbe6ef797	-0.23336636
20	0x3e160e2d	0.14653845
21	0x3e9e30ce	0.3089661
22	0xbda2b615	-0.07944886
23	0xbe929009	-0.28625515
24	0xbec9c1c3	-0.3940564
25	0x3ef3d024	0.47619736
26	0x3d03b6e4	0.03215684
27	0x3eec084e	0.46100086
28	0x3e1dce68	0.15410769
29	0xbf0ea220	-0.55716133
30	0xbd71c235	-0.0590231
31	0x3eead199	0.45863035
32	0xbea15dfa	-0.3151701
33	0xbe828257	-0.25490066
34	0xbde5bd95	-0.112178005
35	0x3cdf85c7	0.02728547
36	0xbebd2927	-0.3694546
37	0x3e8f263a	0.27958852
38	0xbedfb78e	-0.4369473
39	0x3efb18fe	0.49042505
40	0xbec54855	-0.38531747
41	0x3eb92ee3	0.36168584
42	0xbe8172db	-0.2528294
43	0xbd1db3c8	-0.03850153
44	0xbef457a8	-0.47723126
45	0x3e6dadcb	0.23210828
46	0xbdd473f8	-0.10373682
47	0x3cf5b628	0.029994085
48	0x3d292825	0.04129805
49	0x3d1e3ee5	0.0386342
50	0xbe3065bf	-0.17226313
51	0xbc9bf6c4	-0.019038565
52	0xbed42503	-0.41434488
53	0xbe798e34	-0.24370652
54	0xbf0b2695	-0.54355747
55	0xbe924cb8	-0.28574157
56	0xbe476aae	-0.19474289
57	0xbe96cd9f	-0.2945375
58	0xbe0f1a83	-0.13974957
59	0xbd58ce27	-0.052930977
60	0x3e179cbf	0.14805888
61	0xbce15fe4	-0.027511545
62	0xbe0e3095	-0.1388572
63	0x3de7b5be	0.113139614
64	0x3d94183d	0.072311856
65	0x3d7c94b0	0.061665237
66	0xbead3cfb	-0.33835587
67	0x3e829c62	0.25509936
68	0x3e57b874	0.21066457
69	0xbe7c9404	-0.24665838
70	0x3eb7dbaa	0.35909778
71	0x3e3fa1ad	0.18714018
72	0xbec69865	-0.38788143
73	0x3e5f8f07	0.21831904
74	0xbe74afe5	-0.23895223
75	0x3e45b40f	0.19306968
76	0xbcf94b22	-0.030431334
77	0xbe060b63	-0.13090281
78	0xbe444335	-0.19166262
79	0xbdd49666	-0.10380249
80	0x3eaa0e13	0.33213863
81	0xbe7355fc	-0.23763269
82	0x3dd6c97b	0.10487648
83	0x3ea2f2b4	0.31825793
84	0xbc1cc2c3	-0.009567919
85	0x3d93a6cd	0.07209549
86	0xbe5f5cdf	-0.21812771
87	0xbe3873e8	-0.18012965
88	0xbeced2c1	-0.40395167
89	0x3e67e8e7	0.22647439
90	0xbe1a3761	-0.15060188
91	0xbe74affb	-0.23895256
92	0xbb78efe1	-0.0037984776
93	0xbd97e9e3	-0.07417657
94	0xbccf52ae	-0.02530798
95	0x3e3c79b9	0.18405809
96	0xbdb50479	-0.08838744
97	0xbd553d0f	-0.052060183
98	0xbe991014	-0.2989508
99	0x3dcd034e	0.10010396
100	0xbe411dfe	-0.18859097
101	0x3d4256d3	0.047446083
102	0x3e782375	0.24232276
103	0x3e74d527	0.23909436
104	0x3d3bad3c	0.045819506
105	0x3b51baed	0.0032002286
106	0xbd30e1d8	-0.04318413
107	0xbd377544	-0.044789568
108	0xbe3bec38	-0.18351829
109	0x3ec13415	0.37735048
110	0x3e38dd53	0.18053178
111	0xbda7a066	-0.081848904
112	0x3df1221c	0.11774084
113	0xbd6eda7a	-0.058313824
114	0x3e98c08b	0.298344
115	0x3d65e38c	0.05612521
116	0xbde4f63b	-0.11179777
117	0x3c6d68bf	0.014490305
118	0xbd78bb28	-0.06072536
119	0xbdff9f67	-0.124815755
120	0xbeb5027d	-0.3535346
121	0xbe3d3d24	-0.18480355
122	0x3e3de51c	0.1854443
123	0x3e0a861f	0.13527726
124	0xbe1d94e6	-0.15388831
125	0xbdb59d41	-0.088678844
126	0xbe8236bd	-0.25432387
127	0xbdb0f3c0	-0.086402416
128	0x3e20ff27	0.15722333
129	0xbca9d1e9	-0.020729976
130	0xbedaf361	-0.42763808
131	0x3ec55a24	0.38545334
132	0xbe702391	-0.23451068
133	0x3dd718db	0.10502788
134	0x3d16b693	0.03679521
135	0x3e4eef3e	0.20208451
136	0xbe8d4c4f	-0.2759728
137	0x3e60face	0.21970674
138	0x3ea1c73d	0.3159732
139	0xbd9cf5c3	-0.07664063
140	0x3ee9f268	0.45692754
141	0xbeb4a5e8	-0.35282826
142	0xbe924dfb	-0.2857512
143	0xbe9ebe40	-0.31004524
144	0x3e9bbe5a	0.30418664
145	0xbe7a5b0a	-0.24448791
146	0x3ed25517	0.41080543
147	0xbf188ad5	-0.5958684
148	0x3ec0dc8f	0.37668273
149	0xbec3e5ae	-0.3826117
150	0xbe81567f	-0.25261304
151	0xbe7e2f1d	-0.2482266
152	0xbeb09d41	-0.34494975
153	0xbe3928d9	-0.18081988
154	0x3eafa583	0.34305963
155	0xbe2ead1b	-0.17058222
156	0x3dd31723	0.10307147
157	0x3e95f918	0.29291606
158	0x3e7b1f45	0.24523647
159	0x3e949d5c	0.29026306
160	0xbeab9c4a	-0.33517677
161	0xbe2b4710	-0.16726327
162	0xbeb187ef	-0.34674022
163	0xbe0f67d0	-0.14004445
164	0x3c550b23	0.0130031435
165	0xbf2f46f7	-0.6846766
166	0xbcf0b285	-0.029382
167	0x3c008947	0.0078452295
168	0x3d57289d	0.052528966
169	0xbf1b8d32	-0.6076232
170	0x3eeb0a7a	0.4590643
171	0x3d6aab56	0.057292305
172	0x3ea55f2f	0.32299182
173	0xbea1e2dc	-0.31618392
174	0xbc648d1c	-0.013949659
175	0xbee08116	-0.43848485
176	0xbe8336b4	-0.25627673
177	0x3ebe7078	0.37195182
178	0x3e667178	0.22504222
179	0xbe6e16a8	-0.2325083
180	0x3eaaa110	0.33326006
181	0xbed3e274	-0.41383708
182	0x3e9cf9b1	0.3065925
183	0xbf30ced9	-0.69065624
184	0x3eb4ce40	0.35313606
185	0xbec23465	-0.379306
186	0x3d7f2908	0.06229499
187	0x3e8aa609	0.270798
188	0x3ebd8e17	0.37022468
189	0xbe1b9a3b	-0.15195553
190	0x3c8aaba4	0.016927548
191	0xbf09bb0d	-0.5380104
192	0xbde68132	-0.11255111
193	0x3f29f0a8	0.6638284
194	0x3ed060d0	0.40698862
195	0x3ec095f8	0.37614417
196	0x3e048807	0.12942515
197	0x3e09854e	0.13429758
198	0xbedc4432	-0.4302078
199	0x3f1628ff	0.58656305
200	0x3e9723c9	0.2951949
201	0x3eabd003	0.33557138
202	0x3f5ce1ca	0.86282027
203	0x3adb49dd	0.0016730387
204	0x3e29e460	0.16591024
205	0x3d0368e0	0.03208244
206	0x3e11fb94	0.14256126
207	0xbed29957	-0.41132614
208	0x3d8f17fb	0.06986996
209	0x3d7477c9	0.05968455
210	0xbec54852	-0.3853174
211	0xbd199623	-0.037496697
212	0xbe31bfbb	-0.17358296
213	0x3e2676aa	0.16256204
214	0xbd2e1ba6	-0.042506836
215	0x3e1aa1c3	0.1510077
216	0x3e786413	0.24256925
217	0xbe4716bb	-0.19442265
218	0x3dd2ecc1	0.102990635
219	0xbe4fae2e	-0.20281288
220	0xbe3708dc	-0.17874473
221	0xbecd828e	-0.40138668
222	0xbe2e95e4	-0.17049366
223	0x3d95ec7c	0.073204964
224	0x3daf42a1	0.0855763
225	0x3e681a79	0.22666349
226	0x3f297d2b	0.66206616
227	0xbd71cae6	-0.05903139
228	0xbdb9cda9	-0.0907243
229	0x3d300c7e	0.042980663
230	0xbb65dfa1	-0.003507592
231	0x3e1d2271	0.1534517
232	0xbc94a698	-0.018145844
233	0xbdaf7442	-0.08567096
234	0xbec5eeb0	-0.38658667
235	0x3e6c5b1d	0.23081632
236	0xbd41f734	-0.047354892
237	0xbd928e20	-0.071560144
238	0x3e798840	0.24368382
239	0x3e5ec0a8	0.2175318
240	0x3e1e331a	0.15449181
241	0x3dd1f4db	0.102517806
242	0x3ec5f9f0	0.3866725
243	0x3df0c2e7	0.11755925
244	0x3d90b8f6	0.070665285
245	0xbde2c7b6	-0.11073248
246	0xbebbf876	-0.36712998
247	0xbdfd65a3	-0.12372901
248	0xbe984e3f	-0.29747197
249	0xbcc3b5d1	-0.023890408
250	0xbf355070	-0.7082586
251	0x3d713f2d	0.05889814
252	0xbd594ed8	-0.053053707
253	0xbd15cecd	-0.036574174
254	0xbe33b086	-0.17547807
255	0xbe99e367	-0.30056307

encoder.convs.1.attn.bias f4 [64]
0	0xbdf68090	-0.1203624
1	0xbc862fbb	-0.016380182
2	0x3ce11a4c	0.02747836
3	0x3de43c83	0.11144354
4	0xbe1c768f	-0.15279602
5	0x3e901108	0.28137994
6	0x3d6e8a56	0.058237396
7	0x3ec8d5a9	0.3922551
8	0x3e2e1433	0.16999893
9	0xbdb4c82a	-0.08827241
10	0x3e08b05d	0.13348527
11	0xbe4eb8ff	-0.20187758
12	0xbc5a5fca	-0.013328502
13	0x3e5cb39a	0.21552888
14	0xbcf0e61b	-0.029406598
15	0x3dd9ecd1	0.10640872
16	0x3e38fe29	0.18065704
17	0xbe5e6b55	-0.21720631
18	0xbe490f6c	-0.19634789
19	0xbdb87bf7	-0.090080194
20	0xbcf82a91	-0.030293735
21	0x3c14d6f4	0.009084452
22	0xbe3b8821	-0.18313648
23	0x3e0deff6	0.13861069
24	0x3e8a4db9	0.27012423
25	0xbe1d42e9	-0.15357555
26	0xbe2da236	-0.1695641
27	0xbe509413	-0.20368986
28	0xbecdf837	-0.40228435
29	0xbe3b4864	-0.18289334
30	0x3d2d818f	0.042359885
31	0x3dbe7e45	0.09301428
32	0xbd474c47	-0.048656728
33	0x3d81035f	0.06299471
34	0x3daa0b38	0.08302921
35	0xbd9d135f	-0.0766971
36	0xbd1caa45	-0.03824832
37	0xbdf5ae2f	-0.119961135
38	0x3e0a712e	0.13519737
39	0xbe4f7ef4	-0.20263273
40	0xbe63803e	-0.2221689
41	0x3c27623f	0.010216295
42	0x3d55a675	0.0521607
43	0xbdfbc34b	-0.122931086
44	0x3d172e99	0.036909673
45	0x3e704c6c	0.23466653
46	0xbddccdb1	-0.1078142
47	0xbdb7b3b4	-0.089698225
48	0x3f23690b	0.6383216
49	0x3dff1702	0.1245556
50	0xbcd3348b	-0.02578189
51	0xbe3bd9fd	-0.18344875
52	0x3e6414d5	0.22273572
53	0x3dc93c1c	0.09825918
54	0x3dc17807	0.094467215
55	0x3d1fad60	0.038983703
56	0x3e3867df	0.18008374
57	0x3dfa45d0	0.12220347
58	0xbec63e29	-0.387193
59	0x3e14a1d1	0.14514853
60	0x3deea4c9	0.11652524
61	0xbdd58083	-0.10424902
62	0x3e772ed9	0.24138965
63	0x3d0d2a3a	0.0344641
