src/cvrptw/model/v8-tw-iter200-rm25-latest.model (torch_old, 265560 bytes, 26 tensors)

encoder.fc_node.weight f4 [64, 8]
0	0x40349a06	2.8219008
1	0xbf1f59ca	-0.6224638
2	0x3f0ff694	0.56235623
3	0xbe2ac30f	-0.16675971
4	0x3e04fec5	0.12987812
5	0xbd7b4bf1	-0.06135172
6	0x3cd65c1f	0.026166974
7	0x3eae5c51	0.34054807
8	0x3c949342	0.018136624
9	0x3eb203dc	0.3476857
10	0x3e0bca30	0.13651347
11	0xbefb82a9	-0.49123123
12	0x3f2b4061	0.6689511
13	0xbe87a81b	-0.26495442
14	0x3dc0dbd0	0.09416926
15	0x3da5f166	0.08102684
16	0xbfe54eb0	-1.7914639
17	0xbed43132	-0.41443783
18	0x3f072a42	0.52798855
19	0x3cafe6c4	0.021472342
20	0x3da69074	0.08133021
21	0xbc0d8674	-0.008638013
22	0xbe37895a	-0.17923489
23	0x3e3eaacb	0.1861984
24	0xbe77144c	-0.24128836
25	0xbe8dc011	-0.27685598
26	0x3d8a43db	0.06751224
27	0xbee40b81	-0.44540027
28	0x3ef83479	0.48477533
29	0x3ea36b09	0.319176
30	0xbef052a2	-0.46938044
31	0xbf0b32ea	-0.54374564
32	0xbf001e70	-0.50046444
33	0x3f0735f0	0.5281668
34	0x3e1551cd	0.14581986
35	0xbe4690bd	-0.19391151
36	0x3f17f2fb	0.59355134
37	0xbdb6be19	-0.08922977
38	0xbeb70a60	-0.35750103
39	0x3e17f249	0.14838518
40	0xbef4aa3a	-0.47786123
41	0xbe3ad582	-0.1824551
42	0x3e6e2705	0.23257072
43	0xbe30ee79	-0.1727847
44	0xbece4f5a	-0.40294915
45	0xbe73a9fe	-0.23795316
46	0xbf4bef0c	-0.7966163
47	0xbedf1563	-0.43571004
48	0xbed6024d	-0.4179863
49	0x3ea6b9b2	0.3256355
50	0x3d8dd6bb	0.06925722
51	0xbec7d541	-0.39029887
52	0x3f1d9291	0.6155177
53	0xbd60d4fd	-0.05489062
54	0xbe10ebe3	-0.14152484
55	0xbe0b091d	-0.13577695
56	0x3e61a40a	0.22035232
57	0x3e836d4c	0.25669324
58	0x3dfe27ea	0.12409957
59	0xbdeb1e95	-0.114804424
60	0x3f26e5da	0.65194476
61	0xbe87c5de	-0.26518148
62	0xbe85585f	-0.26043984
63	0xbd3332e6	-0.043749712
64	0x3fa3d3f4	1.2799058
65	0xbfd37e6f	-1.652296
66	0xbe3a4224	-0.18189293
67	0xbc14ee83	-0.009090069
68	0x3df64bc5	0.12026171
69	0x3e8acbdf	0.27108666
70	0x3cefe115	0.029282132
71	0xbe40a774	-0.18813878
72	0x3ee9d0da	0.45667154
73	0x3ef95587	0.48698065
74	0x3e37f7b2	0.17965582
75	0xbe192b98	-0.14958036
76	0xbebc4c05	-0.36776748
77	0xbdd04348	-0.10169083
78	0x3e865c37	0.2624223
79	0x3f8fd276	1.1236103
80	0x3e31d34a	0.17365757
81	0x3ed6b30b	0.41933474
82	0x3e0592b7	0.13044249
83	0x3d89a213	0.06720366
84	0x3f2291b4	0.63503575
85	0xbe6ab9f3	-0.22922496
86	0xbef3358a	-0.47501785
87	0x3cfbed57	0.03075282
88	0x3e3bef8d	0.183531
89	0xbdcf4e19	-0.10122318
90	0xbe660157	-0.22461449
91	0xbe170aee	-0.14750263
92	0x3be5e7d0	0.0070161596
93	0x3ef4d2c4	0.4781705
94	0xbe0467a2	-0.12930158
95	0xbf6500b7	-0.89454216
96	0xbf41d583	-0.7571642
97	0x3f36a226	0.7134117
98	0xbbae1893	-0.005312988
99	0x3ede1174	0.4337269
100	0x3e3039cf	0.17209552
101	0x3ece5d76	0.4030568
102	0x3f2ae0ef	0.6674947
103	0x3ce20a2f	0.027592747
104	0x3ed72099	0.42017058
105	0xbec6610b	-0.38745913
106	0x3c3a4892	0.011369841
107	0x3eee74f3	0.465736
108	0xbf13a529	-0.5767389
109	0xbda549ab	-0.08070692
110	0x3e03c0f1	0.1286657
111	0x3ea1d774	0.3160969
112	0xbe320121	-0.17383243
113	0x3ed4ea7e	0.41585153
114	0x3e0c4060	0.13696432
115	0xbea4df60	-0.32201672
116	0x3f1ea297	0.6196684
117	0xbe17f11d	-0.14838071
118	0xbe229b65	-0.15879591
119	0x3bc20c31	0.0059218635
120	0xbf2c6f36	-0.67357194
121	0x3f121f00	0.5707855
122	0x3df2c9d0	0.11854899
123	0xbea26b68	-0.3172257
124	0x3f2bb359	0.6707054
125	0x3d8fe79c	0.07026598
126	0xbed74aa4	-0.42049134
127	0xbe33e57f	-0.17568015
128	0xbee4c9a6	-0.44685096
129	0xbf659fc3	-0.896969
130	0xbd7a9578	-0.0611777
131	0xbe4b785d	-0.19870134
132	0xbd79c9ee	-0.06098359
133	0x3e8d861d	0.27641383
134	0x3c91fecb	0.01782169
135	0xbf8c1c21	-1.0946084
136	0x3e5bf4db	0.21480124
137	0x3f231cc9	0.637158
138	0xbf043eb9	-0.5165821
139	0xbe727ce0	-0.23680449
140	0x3e149e50	0.14513516
141	0x3ebd09de	0.3692159
142	0x3c31662a	0.0108275805
143	0xbea09a35	-0.3136765
144	0x3e225204	0.15851599
145	0xbef5a57a	-0.4797781
146	0xbe103cb2	-0.14085653
147	0x3e2635b6	0.16231427
148	0xbf271882	-0.6527177
149	0x3dcde6e0	0.100538015
150	0x3ecf860b	0.40531954
151	0x3e000220	0.1250081
152	0x3f6f640b	0.9351203
153	0xbeba5acb	-0.36397395
154	0x3eb127b3	0.346006
155	0x3e80c733	0.25151977
156	0xbf2f45e1	-0.68466
157	0xbe6359c9	-0.22202219
158	0x3e5d5bbf	0.2161703
159	0x3eec88f6	0.46198243
160	0xbfaf23ec	-1.3682837
161	0x3ed17179	0.40906885
162	0xbcfab2ef	-0.0306029
163	0x3e3f06d6	0.18654951
164	0xbf053a5c	-0.52042174
165	0x3f070e02	0.5275575
166	0xbec03301	-0.37538913
167	0x3ea5d74e	0.32390827
168	0xbf5f6e3b	-0.87277573
169	0x3eb6999f	0.3566408
170	0xbca66ef9	-0.020316588
171	0x3be3d7ce	0.006953216
172	0xbf129814	-0.572633
173	0x3ebdf9a3	0.3710452
174	0x3c8c71f9	0.01714419
175	0x3ef69834	0.48162997
176	0xbdb46e09	-0.0881005
177	0xbea0ce14	-0.31407225
178	0xbde78f77	-0.113066606
179	0xbd37a02b	-0.044830482
180	0xbf3979cd	-0.7245148
181	0x3e508ee4	0.20367008
182	0x3eff97b4	0.49920428
183	0x3e51d5b5	0.20491679
184	0x3ebb8924	0.36628067
185	0xbf852237	-1.0401067
186	0xbe2d2e2a	-0.16912141
187	0xbed87b83	-0.42281732
188	0xbdd014f2	-0.10160245
189	0xbd839898	-0.06425589
190	0xbec92e16	-0.39292973
191	0xbecee730	-0.40410757
192	0xbeb4c506	-0.35306567
193	0x3d309671	0.043112222
194	0xbc820783	-0.015872722
195	0x3d7c33ab	0.061572712
196	0xbf2ef8cc	-0.68348384
197	0x3e363deb	0.17797057
198	0x3e8c5991	0.27412084
199	0x3f05c55e	0.52254283
200	0xbec98fae	-0.3936743
201	0xbe0f174f	-0.13973735
202	0xbc54938d	-0.012974632
203	0xbda89529	-0.08231575
204	0xbf21a1b3	-0.6313736
205	0x3f23c2a6	0.63968885
206	0xbd6a0e3f	-0.057142492
207	0xbe8de92c	-0.2771696
208	0x3e8c6e96	0.2742812
209	0xbf56d008	-0.8391118
210	0x3edf9e18	0.43675303
211	0xbe62a22a	-0.22132173
212	0xbc263f48	-0.010146923
213	0x3e5e7f17	0.21728168
214	0x3d00bc05	0.03142931
215	0x3f7b2ddf	0.9811687
216	0xbf2f57c0	-0.6849327
217	0x3eba05dd	0.36332598
218	0x3d03449d	0.032047857
219	0x3c8ec08b	0.017425796
220	0xbf241a92	-0.64103043
221	0x3e78b2f5	0.24287017
222	0x3e08c770	0.1335733
223	0x3f6b7554	0.91975904
224	0xbf6953a7	-0.9114327
225	0xbdaa39fc	-0.08311841
226	0x3c12475f	0.008928149
227	0x3e883b16	0.2660758
228	0xbf4b9bbd	-0.7953451
229	0x3e8a3012	0.269898
230	0x3e2ebe68	0.17064822
231	0x3d8dbfc3	0.06921341
232	0x3ebd633a	0.36989766
233	0x3dba8eaf	0.09109246
234	0x3e0477a0	0.12936258
235	0xbde70ecf	-0.112821214
236	0x3f3632b3	0.7117111
237	0xbed70889	-0.419987
238	0xbdfc3657	-0.12315052
239	0xbbc1714d	-0.005903399
240	0xbf50fcf2	-0.81635964
241	0xbda7794a	-0.08177431
242	0x3f3acdd3	0.7297031
243	0xbd7e738a	-0.062121905
244	0x3dd26d9e	0.10274814
245	0xbe06afda	-0.1315302
246	0xbe6193a1	-0.22028972
247	0xbf915899	-1.1355163
248	0x3d972a97	0.0738117
249	0x3d87c447	0.06629234
250	0x3dbba971	0.09163178
251	0xbef07a27	-0.46968195
252	0x3f355663	0.7083494
253	0xbe56f30d	-0.20991154
254	0x3db2743d	0.08713577
255	0xbe4c380a	-0.19943252

encoder.fc_node.bias f4 [64]
0	0xbf080df7	-0.5314631
1	0x3dbdd949	0.092699595
2	0xbec73aca	-0.3891204
3	0x3d277c38	0.04088995
4	0x3d0c4adb	0.034251075
5	0x3f307494	0.68927884
6	0x3e3c576e	0.18392727
7	0x3e6b3f8b	0.22973458
8	0xbd89465b	-0.06702872
9	0x3eae4af0	0.34041548
10	0xbb06388e	-0.0020480487
11	0x3f0c2814	0.54748654
12	0xbe5cc21b	-0.2155842
13	0x3d6a8f92	0.057265826
14	0xbc431d1f	-0.0119087985
15	0xbeb1e383	-0.3474389
16	0x3df9f901	0.12205697
17	0xbdb18e6f	-0.08669745
18	0xbeadc688	-0.3394053
19	0xbe97d80b	-0.29657015
20	0xbc65961e	-0.0140128415
21	0x3d2d35d1	0.04228765
22	0x3ca1cee6	0.019751977
23	0x3f10710d	0.564225
24	0x3e0857f3	0.133148
25	0x3f736ece	0.9509095
26	0x3de013a5	0.10941247
27	0xbe6df7da	-0.23239079
28	0xbd959f02	-0.07305719
29	0x3d293f48	0.041320115
30	0x3dbbd8a6	0.09172182
31	0x3dff70e3	0.12472703
32	0x3d1bb020	0.038009763
33	0x3f17b199	0.5925537
34	0x3ef315a1	0.4747744
35	0x3e672b4c	0.2257511
36	0xbef3932d	-0.47573224
37	0x3e5432bb	0.20722477
38	0xbecd9281	-0.40150836
39	0xbe9ad2af	-0.30238864
40	0xbede29d4	-0.43391287
41	0xbe22afb1	-0.15887333
42	0xbd9d98da	-0.0769517
43	0x3e980157	0.29688522
44	0x3e1ffe81	0.1562443
45	0xbdb1770f	-0.08665287
46	0xbd782a16	-0.06058701
47	0xbd8b6a08	-0.06807333
48	0xbe081150	-0.13287854
49	0xbe178257	-0.14795814
50	0xbe27f84a	-0.16403309
51	0xbced46c7	-0.028964413
52	0x3e71d109	0.23614897
53	0xbe75929b	-0.23981707
54	0xbd5c0e84	-0.05372478
55	0xbd1650a3	-0.036697995
56	0x3de0e9ca	0.10982092
57	0x3df5532b	0.11978754
58	0xbf0c4ccb	-0.54804677
59	0xbe36ef6d	-0.17864771
60	0x3f1194e0	0.5686779
61	0x3f49eedf	0.78880113
62	0xbe44f33c	-0.19233412
63	0x3f61c5d6	0.881925

encoder.fc_edge.weight f4 [16, 2]
0	0x3f0eb8f2	0.55750954
1	0xbf461941	-0.77382284
2	0x3e8bf7d7	0.27337524
3	0x3f738c16	0.9513563
4	0xbf2bc659	-0.6709953
5	0x3f815854	1.0105081
6	0x400edef8	2.232359
7	0xbe64e319	-0.22352256
8	0x3e9e06d2	0.30864578
9	0x3d8a001e	0.067383036
10	0x3e948407	0.2900698
11	0xbf5e59e6	-0.86855924
12	0x3ff09bf7	1.8797597
13	0x3e76c5ea	0.24098936
14	0xbf3cf225	-0.73806983
15	0xbf30d3de	-0.69073284
16	0x3f8573d1	1.0425969
17	0xbe7e4376	-0.24830422
18	0xc0023203	-2.0343025
19	0x3e2f8cae	0.17143509
20	0xbf847ec8	-1.035119
21	0x3f96591a	1.1745942
22	0x3ffb852c	1.9650016
23	0x3e171fd8	0.14758241
24	0x3ea38fdc	0.31945693
25	0xbf6a3f00	-0.9150238
26	0xbfb26025	-1.3935591
27	0x3eda57aa	0.42645007
28	0x3fd6da5d	1.6785389
29	0xbebf6e6c	-0.37388933
30	0x3f2be9c4	0.67153573
31	0xbf317f2b	-0.6933467

encoder.fc_edge.bias f4 [16]
0	0x3db378c8	0.087632716
1	0x3e4cd64c	0.20003623
2	0xbdda683f	-0.106644146
3	0xbe660752	-0.2246373
4	0x3db19f85	0.08673004
5	0x3f245ba7	0.6420235
6	0xbeb845ce	-0.35990757
7	0xbeaf27c4	-0.34210026
8	0xbf8297db	-1.0202593
9	0x3efe51ea	0.4967187
10	0x3ef1d5d2	0.47233444
11	0xbf46292b	-0.7740657
12	0x3e8e7d73	0.27830085
13	0x3f82733f	1.019142
14	0x3f08a200	0.5337219
15	0x3e714f85	0.2356549

encoder.bn.weight f4 [64]
0	0x3ecd80f9	0.4013746
1	0xbb13a12a	-0.0022526481
2	0x3e16ffc4	0.14746004
3	0x3ea5fe0d	0.32420388
4	0xbaeacf8e	-0.0017914639
5	0x3ed5c2f9	0.41750315
6	0xba4262c9	-0.0007415233
7	0xb8a35020	-7.78737e-05
8	0x3e2cff6d	0.16894312
9	0xbb1ebdf5	-0.002422211
10	0x39d6141b	0.0004083224
11	0x3d98ce30	0.07461202
12	0x3e32b4e7	0.17451821
13	0x3b3fd76b	0.0029272686
14	0xbaf2aba1	-0.0018514284
15	0xb9c3c2fb	-0.0003733857
16	0x3e206cf4	0.15666562
17	0x3e90048f	0.28128478
18	0xbaef38e5	-0.0018251209
19	0x3e470453	0.19435243
20	0xbaab3d07	-0.0013064452
21	0xb9e04380	-0.000427749
22	0xb9b2c889	-0.00034100216
23	0x3ec5464a	0.3853019
24	0x3912bf98	0.00013995019
25	0x39acc4ef	0.00032953123
26	0x3d7566fa	0.05991266
27	0x38b8fe82	8.8212095e-05
28	0x3b0c6182	0.0021420424
29	0xb9f9a9f5	-0.0004761961
30	0x3df1eb69	0.11812479
31	0x3afe5970	0.0019405317
32	0x3ecb2ee5	0.39684215
33	0x3e6d7ce1	0.23192169
34	0x3e5e99dc	0.2173838
35	0x394ee564	0.00019731146
36	0x3ac673f5	0.0015140759
37	0xbb00c876	-0.0019650734
38	0x3a91d665	0.0011126517
39	0x3b24bc45	0.0025136631
40	0x3d23df0f	0.040007647
41	0xba1aaff9	-0.0005900856
42	0x3e3b3c5b	0.18284743
43	0x3e8d427b	0.27589783
44	0x3e89383e	0.26800722
45	0x398fd33d	0.0002743247
46	0xbb2fc3bf	-0.0026819555
47	0xbaedc01f	-0.0018138922
48	0x3ee53be8	0.44772267
49	0x3e43b419	0.1911167
50	0xbad2da66	-0.0016086816
51	0xb9fdd06a	-0.000484112
52	0x3b1e1492	0.0024121148
53	0x3a4ca4ab	0.000780652
54	0xbafd161c	-0.0019308957
55	0xbadd35ec	-0.0016877032
56	0x3b1c5836	0.0023856289
57	0x3a099575	0.0005248406
58	0x3c44b5d8	0.012006246
59	0x3c9459c7	0.018109215
60	0x3b612620	0.0034355
61	0x3a45f975	0.00075521256
62	0xbaa929db	-0.0012906151
63	0x3cd4492a	0.025913794

encoder.bn.bias f4 [64]
0	0xba4107e6	-0.00073635427
1	0xba7499d1	-0.0009330782
2	0xbacf515c	-0.0015817094
3	0xbd9f3081	-0.07772923
4	0xba85421a	-0.0010166795
5	0xbdf3b970	-0.11900604
6	0xb931f7b9	-0.0001697232
7	0x3a866b04	0.0010255282
8	0xbaf474a7	-0.0018650488
9	0xb7f7fd12	-2.956254e-05
10	0x39f763ec	0.0004718596
11	0x3b1a0539	0.0023501648
12	0x3d4dcd15	0.05024441
13	0xb9f222f5	-0.00046183882
14	0xba1d9b43	-0.00060122105
15	0xbabf6130	-0.0014601108
16	0xbd277208	-0.040880233
17	0x3ce2bbd2	0.02767745
18	0xb95bfbe7	-0.00020979308
19	0xbbc00c2e	-0.005860827
20	0xb9f40cbf	-0.00046548803
21	0x38fb6d6e	0.000119889955
22	0x38a052c9	7.6448145e-05
23	0xbdd1482c	-0.10218844
24	0x3a71f348	0.0009229672
25	0x393d7f47	0.00018071859
26	0x3b7ad1fe	0.0038272138
27	0xb8c2c603	-9.2875234e-05
28	0x3aa0e6f7	0.0012275864
29	0xb9f07e52	-0.00045870483
30	0xbc8d1ced	-0.017225707
31	0x3a020087	0.0004959185
32	0xbdaa2fac	-0.08309874
33	0xbbab77d1	-0.005232789
34	0xbba7c632	-0.0051200623
35	0x39aa5f67	0.00032496007
36	0x3a391637	0.00070605
37	0x3a7ff31c	0.0009763704
38	0x39bd6c66	0.00036129652
39	0xba82c701	-0.0009977521
40	0xbc28c316	-0.010300418
41	0xba6d7386	-0.0009058047
42	0xba343dbf	-0.0006875656
43	0xbcec7cc9	-0.028868096
44	0x3c590fbb	0.013248379
45	0x3972e181	0.00023162925
46	0xb8e7c541	-0.0001105168
47	0xb922ec49	-0.00015537547
48	0xbdf97d9c	-0.12182161
49	0xbc7a6421	-0.015282662
50	0xba712266	-0.0009198546
51	0x3a55f974	0.00081624766
52	0x39d5ac87	0.0004075507
53	0x3abb1b55	0.0014275113
54	0xb9187960	-0.00014541065
55	0x3a77acdb	0.000944806
56	0xbaac3649	-0.0013138737
57	0x3a0bfdd3	0.0005340252
58	0xbad08117	-0.0015907612
59	0xbab57d15	-0.0013846481
60	0xba228f25	-0.000620114
61	0x39a7f7ac	0.00032037252
62	0x3a032f47	0.00050042983
63	0xbb94d0c5	-0.004541489

encoder.bn.running_mean f4 [64]
0	0xbe8c51d0	-0.27406168
1	0x3db2fa6a	0.08739169
2	0xbeb4b2cd	-0.35292664
3	0xbe137332	-0.14399412
4	0x3d19aa91	0.03751618
5	0xbf4b3ff2	-0.7939445
6	0x3e2d1b3b	0.16904919
7	0x3e57dd90	0.21080613
8	0x3d160931	0.03662986
9	0x3eaf442c	0.342317
10	0x3c2bfb1d	0.010496882
11	0x3f20b3c6	0.6277431
12	0x3fbfc39d	1.4981571
13	0x3d6a3c22	0.057186253
14	0xbbbe78b5	-0.0058127292
15	0xbea3642d	-0.31912366
16	0xbdb836d8	-0.089948356
17	0x3d6f89cf	0.058481034
18	0xbeaf8ca7	-0.34286997
19	0xbee5b21a	-0.44862443
20	0x3bcf6e81	0.0063303118
21	0x3da39692	0.079877034
22	0x3b6b6dca	0.0035923594
23	0xbf233a8b	-0.63761204
24	0x3e0aad70	0.13542724
25	0x3f76ad82	0.963585
26	0x3eb99728	0.36248136
27	0xbe48cc67	-0.19609223
28	0xbd26cd26	-0.04072299
29	0x3c38e18e	0.011284245
30	0xbd0ef8a9	-0.03490511
31	0x3e0a5101	0.13507463
32	0xbf7471a1	-0.95485884
33	0x3eb573f5	0.3544003
34	0x3f037f33	0.51365966
35	0x3e60092e	0.21878502
36	0xbefabedd	-0.48973742
37	0x3e5edc56	0.21763739
38	0xbec6eacf	-0.3885102
39	0xbe92a52a	-0.28641635
40	0xbef9abb1	-0.48763803
41	0xbe328bdc	-0.17436165
42	0xbe6b7dd8	-0.22997224
43	0x3e81cfc6	0.2535383
44	0x3e33ac37	0.17546163
45	0xbd3080f7	-0.04309174
46	0xbd901c66	-0.070366666
47	0xbd62e1eb	-0.055391233
48	0xbed013a7	-0.40639994
49	0xbeca3723	-0.3949519
50	0xbe2e4dbb	-0.1702184
51	0xbb132f26	-0.0022458523
52	0x3e74c398	0.23902738
53	0xbe3021de	-0.1720042
54	0xbcdbba3d	-0.026822204
55	0xbd1346cf	-0.0359562
56	0x3e02c0d5	0.12768872
57	0x3da1dd76	0.079035684
58	0xbf18161f	-0.59408754
59	0xbe8004f0	-0.25003767
60	0x3f116048	0.5678754
61	0x3f470ca3	0.7775366
62	0xbe50e525	-0.20399912
63	0x3f5717e9	0.8402086

encoder.bn.running_var f4 [64]
0	0x3c4c8ff5	0.012485494
1	0x3d50588a	0.050865687
2	0x3c31480f	0.010820403
3	0x3d11f185	0.03563072
4	0x3cf6ad5b	0.03011196
5	0x3e884eea	0.26622707
6	0x3d165d43	0.036710035
7	0x3d555d78	0.052091092
8	0x3c99c9c9	0.018772976
9	0x3d1d8d1b	0.038464647
10	0x3d39106c	0.045181677
11	0x3c4f74ee	0.012662156
12	0x3ed040d7	0.4067447
13	0x3cfc535c	0.030801468
14	0x3d1d7f63	0.038451564
15	0x3d13abd7	0.03605255
16	0x3cb865f7	0.022509558
17	0x3c518192	0.01278724
18	0x3d2c8860	0.042122245
19	0x3d48ed58	0.049054474
20	0x3d8c16ee	0.06840311
21	0x3d8826a6	0.066479966
22	0x3d78c4fe	0.06073474
23	0x3e5e5e0d	0.21715565
24	0x3d86c0a0	0.06579709
25	0x3d9ee251	0.0775801
26	0x3cd3a491	0.025835307
27	0x3daa334e	0.08310567
28	0x3da422b5	0.08014432
29	0x3d94eba0	0.072715044
30	0x3d177aa7	0.036982205
31	0x3d74e1e3	0.059785735
32	0x3e059b86	0.13047609
33	0x3d0476cf	0.032339867
34	0x3c80eca8	0.015737846
35	0x3d7642c8	0.06012228
36	0x3d4c461d	0.049871553
37	0x3d226dac	0.039655373
38	0x3d80535c	0.062658995
39	0x3cc9be62	0.024626914
40	0x3c7bf796	0.015378853
41	0x3d4773ac	0.048694298
42	0x3d33a477	0.043858018
43	0x3d1d374a	0.038382806
44	0x3bc7f436	0.0061021103
45	0x3d9713e0	0.07376838
46	0x3d6e886b	0.058235567
47	0x3ca6f995	0.020382682
48	0x3cb32dca	0.02187242
49	0x3d39f5d8	0.04540047
50	0x3d35a54a	0.044347085
51	0x3d79af8e	0.060958438
52	0x3d1409f5	0.03614231
53	0x3d02de63	0.031950366
54	0x3cc8d560	0.024515808
55	0x3d40c237	0.047060218
56	0x3d70063e	0.058599703
57	0x3d85a238	0.065250814
58	0x3d881be1	0.066459425
59	0x3ce1b57e	0.027552363
60	0x3c74a5e0	0.014932126
61	0x3d77f079	0.060532067
62	0x3d0bde0c	0.034147307
63	0x3c662cc4	0.014048759

encoder.convs.0.fc.weight f4 [64, 64]
0	0x3f0b7285	0.5447162
1	0xba56e644	-0.00081977644
2	0x3ec29de6	0.38011092
3	0xbdcbc016	-0.09948747
4	0xbbd91ecb	-0.0066259853
5	0xbdf46f72	-0.11935319
6	0x3bb946a1	0.0056541716
7	0x3be0b3dd	0.006857379
8	0xbdcb7516	-0.09934442
9	0x3b82ab7e	0.0039877286
10	0x3b8850de	0.0041600307
11	0xbe060eb4	-0.13091546
12	0x3dd2cd62	0.1029308
13	0x3c0580bc	0.008148368
14	0x3c17bb94	0.009261031
15	0x3b708a9f	0.0036703718
16	0xbc90351c	-0.01760345
17	0xbed5fab9	-0.4179285
18	0x3bb02afa	0.005376217
19	0xbd944691	-0.07240022
20	0xb967d417	-0.00022108886
21	0x3c8a7e08	0.0169058
22	0x3be72da0	0.0070549995
23	0xbde29412	-0.110633984
24	0xbbe30f68	-0.006929327
25	0x3b2aa7ee	0.0026040035
26	0x3e618126	0.22021922
27	0xbb0f6771	-0.0021881724
28	0xbc343d75	-0.011000981
29	0x3bc16ed3	0.005903104
30	0x3e1862b4	0.14881402
31	0xbc35f8ef	-0.011106714
32	0xbe0b132c	-0.13581532
33	0x3dfe3f27	0.12414389
34	0x3f15483e	0.5831336
35	0xbbce88ba	-0.00630292
36	0x3afdbbd8	0.001935835
37	0xbaa89e69	-0.0012864593
38	0x3c0dc176	0.008652082
39	0x3bbf26bb	0.0058334745
40	0xbda59fe4	-0.08087137
41	0xbbb6d4a9	-0.0055795503
42	0xbdddb856	-0.10826175
43	0x3e6e1476	0.23249993
44	0xbd5521c6	-0.052034162
45	0xbc2a0f89	-0.01037968
46	0xbba5ca53	-0.0050595193
47	0xba328621	-0.0006810148
48	0xbdd6e069	-0.104920216
49	0x3be8d86e	0.0071058786
50	0x3c472cea	0.012156704
51	0xbc0defd2	-0.008663135
52	0xb9a2a8e4	-0.0003102488
53	0xbb8a1404	-0.004213812
54	0xbcdaaab1	-0.02669272
55	0x3b320173	0.0027161508
56	0x39820436	0.0002479867
57	0xbc6f5eab	-0.014609973
58	0x3d954bd4	0.07289854
59	0x3cab0cd3	0.020880139
60	0x3db4c7a6	0.088271424
61	0xbc1668ff	-0.009180306
62	0xbb878951	-0.0041362424
63	0xbd3ffaae	-0.046869926
64	0xbe0aa457	-0.13539253
65	0x3bbd0f95	0.00576968
66	0xbde2c2e5	-0.110723294
67	0xbec0707b	-0.37585816
68	0x3a3aa2f3	0.0007119618
69	0x3e06b2df	0.13154171
70	0xbc476091	-0.012169019
71	0xbaab3687	-0.0013062515
72	0xbea66312	-0.3249746
73	0xbcb947ed	-0.022617305
74	0x3c87630a	0.016526718
75	0xbeb64b02	-0.356041
76	0xbde2f259	-0.110813804
77	0x3c4a8556	0.012360891
78	0x3c255ddd	0.0100931795
79	0x3a83a897	0.001004475
80	0xbe433ba3	-0.19065718
81	0xbe3ed283	-0.18634991
82	0xbb568449	-0.0032732657
83	0xbdf8b68d	-0.12144194
84	0xbb0d58b1	-0.0021567757
85	0xbb74ae38	-0.0037335288
86	0x3b51dee5	0.0032023725
87	0x3dfdee76	0.123989984
88	0x393061d4	0.00016821112
89	0x3c634ca5	0.013873254
90	0xbe20e713	-0.15713148
91	0x3aed7c48	0.0018118704
92	0xbd80554b	-0.06266268
93	0xb91945ca	-0.00014617215
94	0xbd36c533	-0.044621658
95	0xbc01d5c2	-0.007924499
96	0x3dc71dba	0.09722467
97	0x3de66ee1	0.11251617
98	0x3d3e31de	0.046434276
99	0x3c93b91f	0.018032609
100	0xbb6bda79	-0.0035988374
101	0x3a866dba	0.001025609
102	0xbba6b73b	-0.0050877607
103	0xbbcb3393	-0.0062012165
104	0x3d5a9b79	0.053370927
105	0xbb8f7f0d	-0.0043791593
106	0x3e52f0f8	0.20599735
107	0x3ea00df1	0.31260636
108	0xbed1a4ef	-0.40946147
109	0xbbc4327b	-0.005987463
110	0x3b1f3fc3	0.002429948
111	0x3bb2c342	0.0054554055
112	0xbe14ecc8	-0.1454345
113	0x3e9eee20	0.3104105
114	0xb9c2b9aa	-0.00037140894
115	0xbb5b5f55	-0.003347357
116	0x3b0fe3ae	0.0021955776
117	0x3bcc6b95	0.0062384107
118	0x3b9dc0b3	0.0048142313
119	0x3b15648a	0.0022795522
120	0xbb9ee6b8	-0.004849281
121	0xbab6784d	-0.001392135
122	0x3e203933	0.1564682
123	0xbdebfcf3	-0.115228556
124	0xbd1abe83	-0.037779342
125	0xbbaf408f	-0.005348272
126	0x3be93e5b	0.007118029
127	0x3eb681a3	0.3564578
128	0x3e4a2db8	0.19744003
129	0x3c445eee	0.011985524
130	0xbe7ab7e5	-0.24484213
131	0xbe6e3526	-0.23262462
132	0x3c7cf508	0.015439279
133	0x3dc84198	0.09778136
134	0x3ba0c9fb	0.0049068904
135	0xbc2dc9c2	-0.010607185
136	0x3e385189	0.17999853
137	0xbc2c93f2	-0.01053332
138	0xbc88c610	-0.016696006
139	0x3e0e431b	0.13892786
140	0xbe5d9346	-0.21638212
141	0x3bf68557	0.0075232196
142	0xbaa864f7	-0.0012847473
143	0x3a0d1d5a	0.0005383097
144	0xbdefc71d	-0.117079
145	0x3e1b9f13	0.15197401
146	0xbc6347e3	-0.01387212
147	0xbd1e1b45	-0.038600225
148	0x3c1c8d14	0.00955512
149	0x3b5e2c49	0.0033900908
150	0xbb95b771	-0.004568987
151	0x3e0cf179	0.1376399
152	0x3ad3d290	0.0016160775
153	0xba970030	-0.0011520442
154	0x3d92bc2f	0.071647994
155	0xbc03f903	-0.0080549745
156	0x3db13cc4	0.08654168
157	0xbc8e6bbe	-0.01738536
158	0x3daca9f0	0.084308505
159	0xb9435c94	-0.00018631137
160	0x3e3130a1	0.17303707
161	0x3ce6d9f0	0.028180093
162	0xbde74dbc	-0.112941235
163	0x3c8174d7	0.015802784
164	0xbc9d527a	-0.019204367
165	0xbbbe6e23	-0.005811469
166	0xbccbd37b	-0.024881115
167	0x3b30926e	0.0026942748
168	0x3dd69e10	0.10479367
169	0x3cc13143	0.02358306
170	0xbe9044d0	-0.281775
171	0xbe0a7f55	-0.13525136
172	0xbddc0b09	-0.10744292
173	0x3b420ba2	0.0029608984
174	0x3be6ba30	0.0070412382
175	0x3c3b4ca4	0.011431847
176	0xbdb2e8d5	-0.087358154
177	0x3d5401a6	0.051759385
178	0x3acc89c9	0.0015605028
179	0xbbd97165	-0.006635832
180	0x3c0d7e72	0.008636104
181	0xbc0b980f	-0.00852014
182	0xbaa95d1b	-0.0012921424
183	0xbc9d4c63	-0.019201463
184	0x3ca40a0b	0.02002432
185	0xbc3b5767	-0.011434413
186	0xbe42d0ce	-0.19024965
187	0xbe103993	-0.14084463
188	0xbd1408fd	-0.036141384
189	0xba9b7481	-0.0011860282
190	0xbc54160d	-0.01294471
191	0xbe6a6984	-0.22891814
192	0x3d1883b9	0.037234996
193	0x3b70d2cf	0.0036746745
194	0xbd922e7e	-0.07137774
195	0x3dcd6582	0.10029127
196	0xbc1afdc4	-0.0094599165
197	0xbd6a8eda	-0.05726514
198	0xbbd2567f	-0.0064190025
199	0x3c862345	0.01637424
200	0xbe384fe4	-0.17999226
201	0xbc2f23e8	-0.010689713
202	0xbc822d2e	-0.015890684
203	0xbe450e13	-0.1924365
204	0xbd1eab34	-0.03873749
205	0x39f52467	0.00046757163
206	0xbc79d501	-0.015248538
207	0xbb997d36	-0.0046841158
208	0xbe7f4e3a	-0.24932185
209	0x3d443bca	0.04790858
210	0x3c3ce367	0.011528826
211	0x3d1e3aad	0.038630176
212	0x3c029d8b	0.0079721315
213	0xbc96a42a	-0.018388826
214	0xbbe192c1	-0.0068839495
215	0xbb11fff5	-0.0022277806
216	0x3b80843a	0.0039220126
217	0x3d2a8564	0.041631117
218	0xbcb86662	-0.022509757
219	0x3b790ae8	0.0038000885
220	0xbdb769ab	-0.089557014
221	0x3930c382	0.000168575
222	0xbe5ea20e	-0.21741506
223	0x3b1fd4c5	0.0024388295
224	0xbc70eca0	-0.014704853
225	0xbc970360	-0.018434227
226	0xbdec2486	-0.11530404
227	0x3caf7665	0.02141876
228	0x3c3c2e5e	0.011485664
229	0x3c4fefef	0.012691482
230	0x3c52453a	0.012833888
231	0xbbe8d771	-0.0071057607
232	0xbd162f77	-0.03666636
233	0xbbddd058	-0.0067692213
234	0xbcadf9fb	-0.021237364
235	0x3c235d34	0.009970952
236	0xbe071152	-0.13190201
237	0x3ba1dde7	0.004939783
238	0x3c36573c	0.011129197
239	0x3a833589	0.0010010462
240	0x3e3ae893	0.18252783
241	0x3cac8617	0.021060033
242	0xbc16bceb	-0.009200315
243	0x3b5c39f0	0.003360387
244	0xbc18aa62	-0.009317966
245	0xbbdd651d	-0.0067564384
246	0x3c638946	0.013887709
247	0xbab7f3e1	-0.0014034474
248	0x3c1bc5bb	0.009507592
249	0x3a8243b0	0.0009938385
250	0x3d27b83d	0.040947188
251	0x3dc6e2be	0.097112164
252	0x3c91096d	0.01770469
253	0xbb58ab5e	-0.0033061127
254	0xbc036566	-0.008019781
255	0x3e21176a	0.15731588

encoder.convs.0.fc.bias f4 [64]
0	0x3da529d0	0.08064616
1	0xbe83dc9d	-0.25754252
2	0xbd8ec793	-0.069716595
3	0xbc7a0b5e	-0.015261499
4	0x3e752c4f	0.23942684
5	0x3d0b2d5b	0.0339788
6	0x3d0f2c6e	0.03495448
7	0xbeaa21aa	-0.3322881
8	0xbe0e9ee6	-0.13927802
9	0x3d3a60fe	0.045502655
10	0x3da551a7	0.080722146
11	0x3e8613f9	0.26187113
12	0x3b5a1fb2	0.0033283052
13	0x3c692892	0.014230864
14	0xbcee014f	-0.029053358
15	0xbccc0a9e	-0.024907406
16	0xbe0ed712	-0.1394923
17	0xbd8e54a0	-0.06949735
18	0xbc78ecc5	-0.015193169
19	0x3d817fed	0.06323228
20	0xbe718521	-0.23585941
21	0xbbd4b1ef	-0.006490938
22	0xbc992428	-0.018693998
23	0x3d4bc9da	0.049753048
24	0x3dba4c44	0.09096578
25	0x3dd81557	0.10550945
26	0xbddb7ac2	-0.107167736
27	0xbb1cbe7f	-0.0023917255
28	0x3d6cee6a	0.057844557
29	0x3cb019c7	0.021496667
30	0xbdc4c563	-0.09607961
31	0xbee3f599	-0.44523314
32	0x3e4e62b4	0.2015484
33	0xbd0d8eeb	-0.034560125
34	0x3d608777	0.05481669
35	0x3d53d954	0.051720932
36	0xbd07e642	-0.033178575
37	0xbb16ee59	-0.002303025
38	0xbe21bbec	-0.15794343
39	0xbd1b569f	-0.037924405
40	0xbec597f5	-0.38592497
41	0xbe3c8d5f	-0.18413304
42	0xbf13dddb	-0.577604
43	0xbc28ac34	-0.010294963
44	0xbd4eec32	-0.050518222
45	0xbe1a22a3	-0.15052275
46	0x3d053d29	0.03252903
47	0xbe64bbfd	-0.22337337
48	0xbdc2c808	-0.09510809
49	0x3d0523d2	0.032504864
50	0xbe9bbd42	-0.3041783
51	0xbd9d8aa0	-0.07692456
52	0xbf1596ce	-0.58433235
53	0xbc31af17	-0.010844967
54	0xbe8fd625	-0.28093067
55	0x3e07966d	0.13240977
56	0x3e376d9d	0.17912908
57	0xbc84ff43	-0.016235
58	0xbf092df0	-0.5358572
59	0x3e85f5d8	0.26164126
60	0xbd890f8f	-0.06692421
61	0xbd91da83	-0.07121756
62	0x3dca8206	0.09888081
63	0x3e7751cf	0.24152301

encoder.convs.0.attn.weight f4 [64, 144]
0	0xbe9b01cd	-0.3027481
1	0xbf348598	-0.7051635
2	0xbe7bb17c	-0.24579424
3	0xbcaf38c0	-0.021389365
4	0x3edd2044	0.4318868
5	0xbe454a1c	-0.19266552
6	0x3d3e47f0	0.046455324
7	0x3eb6995b	0.35663876
8	0xbe9e0188	-0.30860543
9	0xbef37831	-0.47552636
10	0x3ee56049	0.44800022
11	0xbdbcd75c	-0.09220764
12	0xbdc4c0e9	-0.09607107
13	0x3e90db16	0.2829215
14	0xbe47f103	-0.19525532
15	0xbe39ceb4	-0.18145257
16	0xbeb17026	-0.34655875
17	0xbeb156e9	-0.3463662
18	0x3ee54b85	0.4478418
19	0xbd9ff544	-0.078104526
20	0x3c22049b	0.009888793
21	0xbd61c543	-0.055119764
22	0xbed45a22	-0.41475016
23	0x3d781fce	0.060577206
24	0x3cc2c63f	0.023776172
25	0x3ea2538c	0.31704366
26	0x3c26b167	0.010174132
27	0xbeafce47	-0.34337065
28	0x3c9f728f	0.019463805
29	0xbc59c5bd	-0.013291773
30	0xbef4c017	-0.47802803
31	0xbe3dbd07	-0.1852914
32	0xbe49fef6	-0.19726166
33	0xba885ae2	-0.0010403062
34	0x3e3207e7	0.17385827
35	0x3cf6eb45	0.030141482
36	0xbeccfaf8	-0.40035224
37	0x3dad663f	0.084667675
38	0xbeaccea8	-0.33751416
39	0x3ed0d75e	0.40789312
40	0x3e7ec092	0.24878147
41	0xbe642016	-0.22277865
42	0xbf0c28fd	-0.54750043
43	0x3e85f3d9	0.26162603
44	0x3df6274a	0.120192125
45	0x3aaa90d5	0.0013013134
46	0xbeb7456c	-0.35795152
47	0xbe4943bd	-0.19654746
48	0xbe9f6ebd	-0.31139174
49	0xbe84d529	-0.25943878
50	0xbebb99f0	-0.36640882
51	0xbf0606e2	-0.5235425
52	0xbe18fff1	-0.14941384
53	0xbd5ce0d7	-0.05392536
54	0xbe86db54	-0.2633921
55	0x3e35e452	0.17762879
56	0x3ea44251	0.32081845
57	0x3ec1dc95	0.37863603
58	0x3e3629e5	0.17789419
59	0xbeb5df21	-0.35521796
60	0xbde8b928	-0.11363441
61	0xbed2bfad	-0.41161862
62	0x3e4c6070	0.19958663
63	0x3cd80848	0.026371136
64	0x3ddd117e	0.10794352
65	0xbd45c488	-0.04828313
66	0xbd0b7245	-0.034044523
67	0xbda7f0f2	-0.082002535
68	0x3de089b3	0.10963764
69	0xbd86b9d7	-0.06578415
70	0x3e9693c4	0.2940961
71	0xbdda72f3	-0.10666456
72	0xbe7f3ccc	-0.24925536
73	0x3c9a64ea	0.018846948
74	0x3d3305b1	0.0437066
75	0x3d68b4a4	0.056812897
76	0x39a485e8	0.00031380286
77	0x3e05e05a	0.13073865
78	0x3d476dd2	0.048688717
79	0x3d970a10	0.07374966
80	0x3d746387	0.05966523
81	0x3bdfdeb3	0.0068319677
82	0xbd370ef8	-0.04469201
83	0x3d6c58b0	0.057701766
84	0x3d85857a	0.06519599
85	0x3c50bf76	0.01274096
86	0x3dddb8aa	0.108262375
87	0x3ba70b1d	0.0050977604
88	0xbd9ecc17	-0.07753771
89	0xba29d9d2	-0.0006479296
90	0xbd3a9fcf	-0.04556256
91	0xbe479c62	-0.19493249
92	0x3e0a0a6b	0.13480537
93	0xb9bcb6d6	-0.00035994378
94	0xbe3a1a16	-0.18174013
95	0xbdbccc3c	-0.09218642
96	0x3dba2e74	0.090908915
97	0xbcd43b0d	-0.025907064
98	0xbd40c97c	-0.04706715
99	0xbcf05b3b	-0.029340377
100	0xbded757c	-0.11594674
101	0xbd980095	-0.07421986
102	0xbd07f68c	-0.03319411
103	0xbc14993f	-0.00906974
104	0xbcb02b16	-0.02150492
105	0xbe72476b	-0.23660056
106	0xbd30d47d	-0.043171395
107	0x3d864579	0.065562196
108	0xbb962b73	-0.0045828163
109	0xbdcd685d	-0.10029671
110	0xbe86e931	-0.26349786
111	0xbc68f3aa	-0.01421825
112	0x3d2ce477	0.04221007
113	0x3c16bbdc	0.009200063
114	0x3bf9fbc8	0.0076288916
115	0x3ad873cc	0.0016514002
116	0xbd8534db	-0.06504222
117	0xbce6001c	-0.028076224
118	0xbe2c768d	-0.16842099
119	0xbe1a8f59	-0.15093745
120	0x3cf72d23	0.03017289
121	0x3de60f6a	0.11233409
122	0xbde8357a	-0.11338325
123	0xbde513c0	-0.11185408
124	0x3d519fdb	0.05117784
125	0xbaee7467	-0.001819265
126	0x3cf81817	0.030284924
127	0x3c70512b	0.014667789
128	0xbe52e753	-0.20596056
129	0x3f07e30d	0.53080827
130	0x3e712776	0.2355021
131	0xbc0550a5	-0.008136903
132	0x3ca5bbc1	0.02023113
133	0xbd83dad7	-0.06438225
134	0x3f20b951	0.6278277
135	0xbeab65e1	-0.33476165
136	0xbe0b7976	-0.13620552
137	0xbe274a44	-0.16336924
138	0x3e4d378e	0.20040724
139	0x3da2c6c0	0.07948065
140	0xbe480b7c	-0.19535631
141	0xbbd11992	-0.006381222
142	0x3e02d6d9	0.1277727
143	0xbd354ff9	-0.04426572
144	0xbd9a4666	-0.07532959
145	0x3e5731e6	0.21015128
146	0x3df2e3cc	0.11859855
147	0x3f00758b	0.50179356
148	0x3e80c52c	0.2515043
149	0x3f4d3ae4	0.80167985
150	0x3f6f4fe2	0.93481266
151	0xbe658a2b	-0.22415988
152	0xbe89059e	-0.26762098
153	0x3f183405	0.59454376
154	0xbe854f1a	-0.26036912
155	0x3d8b449a	0.06800194
156	0xbce68247	-0.028138293
157	0xbcdb7eea	-0.026793916
158	0xbf154959	-0.58315045
159	0xbe7b5d8d	-0.24547406
160	0x3f514a41	0.8175393
161	0x3ef90c43	0.48642167
162	0x3e24ff6c	0.1611306
163	0xbd5c40a7	-0.053772595
164	0x3f10a0bf	0.5649528
165	0xbe38b22d	-0.18036719
166	0xbe71eeff	-0.23626326
167	0xbed4dc74	-0.41574442
168	0x3e2d5ac9	0.16929163
169	0xbea6ac37	-0.32553264
170	0x3efe8714	0.4971243
171	0xbd98c591	-0.07459558
172	0x3c75c0e8	0.014999606
173	0x3e52d88b	0.20590417
174	0xbf2a1d1d	-0.66450673
175	0xbda9ce37	-0.082912855
176	0xbe96e13a	-0.2946871
177	0x3f1974e9	0.59944016
178	0xbf2b94df	-0.67024034
179	0x3e12b07e	0.14325139
180	0xbecfe7d4	-0.40606558
181	0xbba9db8b	-0.0051836423
182	0x3ea80b62	0.32821184
183	0x3f9d8c50	1.2308445
184	0xbe2470a7	-0.16058598
185	0xbf11d645	-0.56967574
186	0xbe864056	-0.2622096
187	0x3e1198f4	0.14218503
188	0x3e0ae97d	0.13565631
189	0x3e252e0c	0.16130847
190	0xbf05eddb	-0.52316064
191	0xbda31e3e	-0.079647526
192	0xbf0e1275	-0.55496913
193	0xbf1c6a83	-0.61100024
194	0xbf1b0a1c	-0.605623
195	0x3e1ff00a	0.15618911
196	0xbe31789e	-0.17331168
197	0x3e3ef32a	0.18647447
198	0xbe729d1b	-0.23692743
199	0x3e68e865	0.22744901
200	0x3e9bbbd5	0.30416742
201	0xbe3a24ba	-0.18178073
202	0x3eddc221	0.4331217
203	0xbe4b028c	-0.1982519
204	0xbd557a17	-0.052118387
205	0xbf2718cd	-0.6527222
206	0xbeab44f7	-0.33451054
207	0xbd8920a5	-0.066956796
208	0x3ccac9c6	0.024754416
209	0x3e1307ea	0.14358488
210	0x3e0592b7	0.13044249
211	0x3e1cc223	0.15308432
212	0xbd2f1836	-0.0427477
213	0x3e12bcb2	0.14329794
214	0x3eccc24d	0.3999199
215	0xbebbc02b	-0.3667005
216	0xbe164ac8	-0.14676964
217	0x3e18f518	0.14937246
218	0x3e3f5967	0.18686448
219	0x3e9ebaff	0.31002042
220	0x3d736841	0.059425596
221	0x3e8ac6a6	0.27104682
222	0xbc8321ba	-0.016007293
223	0xbc827c97	-0.01592855
224	0x3dd20231	0.10254324
225	0x3e7190c4	0.2359038
226	0x3f0cbd74	0.5497658
227	0x3d8bf4c3	0.06833794
228	0x3e3b5acc	0.18296355
229	0xbd203c62	-0.039120086
230	0xbe20973e	-0.15682694
231	0xbd9b6511	-0.07587636
232	0xbe6cbab6	-0.231181
233	0x3e3ca92c	0.18423909
234	0x3e84773d	0.25872222
235	0xbe55e5c5	-0.20888431
236	0xbee8bb8f	-0.45455596
237	0xbb2ac61b	-0.0026058021
238	0xbe2c285a	-0.16812268
239	0x3ddcf94a	0.107897356
240	0x3cd7e67e	0.026355024
241	0x3df5d44d	0.12003384
242	0xbf4b11a5	-0.793238
243	0xbca5e16a	-0.020249087
244	0xbda7b053	-0.08187928
245	0xbe606381	-0.21912958
246	0xbc8c195e	-0.01710194
247	0x3f35b767	0.70982975
248	0xbeee7560	-0.46573925
249	0xbe8fbbe5	-0.2807304
250	0x3e192d6f	0.14958738
251	0xbe0bb316	-0.13642535
252	0xb9ffe1b1	-0.00048805543
253	0xbd1eb70b	-0.038748782
254	0xbe4d8b69	-0.20072712
255	0x3e68a011	0.2271731

encoder.convs.0.attn.bias f4 [64]
0	0x3efb4862	0.4907866
1	0x3e2945ef	0.16530584
2	0xbebfdbff	-0.3747253
3	0xbf114d20	-0.5675831
4	0x3b20b1b7	0.0024519989
5	0x3e92c456	0.28665417
6	0xbefc45a9	-0.49271896
7	0x3d62a555	0.055333454
8	0x3e3a844a	0.18214527
9	0xbe39b73c	-0.18136305
10	0xbe1eec92	-0.15519932
11	0xbc4baa1b	-0.012430693
12	0xbe162f5b	-0.14666502
13	0x3e35da07	0.17758952
14	0xbe6e6866	-0.23282012
15	0xbec4a3bd	-0.38406172
16	0x3d234af0	0.039866388
17	0xbe87b400	-0.26504517
18	0x3cb9e709	0.022693174
19	0xbf35bb11	-0.70988566
20	0x3e04b80e	0.12960836
21	0xbf5d4f60	-0.8644924
22	0x3e6fdafc	0.2342338
23	0xbf0ef8e2	-0.55848515
24	0xbe477a98	-0.1948036
25	0xbc0e7ac8	-0.0086962655
26	0xbe18c241	-0.14917852
27	0x3f16cd82	0.5890733
28	0x3d77efb6	0.06053134
29	0xbf148581	-0.5801621
30	0x3e8d4aaa	0.27596027
31	0xbeaf7bd7	-0.3427417
32	0xbe91c36a	-0.28469402
33	0xbea96498	-0.3308456
34	0x3ebcf43f	0.36905095
35	0x3e58883c	0.2114572
36	0xbf95976c	-1.1686835
37	0xbe2640af	-0.16235612
38	0x3cdc1efb	0.026870241
39	0xbe45eb54	-0.19328052
40	0xbe2895fa	-0.16463462
41	0x3e867865	0.2626373
42	0x3cf5fb43	0.030027037
43	0xbe2ab4a5	-0.16670473
44	0xbe4f68cd	-0.20254822
45	0xbf62ea32	-0.88638604
46	0xbe87ff34	-0.26561892
47	0xb9b35c00	-0.00034210086
48	0xbea52ce1	-0.32260802
49	0xbf1b27e8	-0.6060777
50	0xbd8d6a22	-0.06905009
51	0x3e79d894	0.24399024
52	0x3e54868b	0.20754449
53	0xbf404b9d	-0.75115377
54	0xbec90c40	-0.39267159
55	0xbe0eb2e9	-0.13935436
56	0xbe2de91e	-0.16983458
57	0x3f048781	0.5176926
58	0x3eacc1b1	0.33741525
59	0x3f63e705	0.8902438
60	0xbeff83a7	-0.4990513
61	0xbf21dbe3	-0.63226146
62	0xbec228ab	-0.37921652
63	0xbe700a96	-0.23441538

encoder.convs.1.fc.weight f4 [64, 64]
0	0xbe90577c	-0.28191745
1	0x3e8c0c15	0.27352968
2	0x3eaeecb7	0.34164974
3	0xbe156b18	-0.14591634
4	0x3e701473	0.23445301
5	0xbda16254	-0.07880083
6	0x3e6a868e	0.22902891
7	0x3efc595d	0.4928693
8	0x3eda49ab	0.4263433
9	0xbeaea264	-0.3410827
10	0xbe1557eb	-0.1458432
11	0xbef9d9c9	-0.4879897
12	0xbd02ab42	-0.031901605
13	0xbd9145a5	-0.07093362
14	0x3d9f09f5	0.07765571
15	0xbdeab841	-0.11460925
16	0x3dd464f9	0.103708215
17	0xbe6339d2	-0.22190025
18	0x3f116aed	0.5680378
19	0x3c45e6bd	0.012078938
20	0xbebb8e5c	-0.3663205
21	0x3e404981	0.1877804
22	0x3ed04b43	0.4068242
23	0x3e096ef4	0.13421232
24	0xbe862bcb	-0.26205286
25	0xbe5ce3c3	-0.21571259
26	0xbe0380ba	-0.12842074
27	0xbe4c0715	-0.19924577
28	0xbf45442b	-0.7705714
29	0xbc8ee6ee	-0.0174441
30	0x3e857583	0.26066217
31	0xbda19044	-0.078888446
32	0x3e072265	0.13196714
33	0xbda3536b	-0.07974895
34	0x3e191c0e	0.14952108
35	0xbe1fb0a7	-0.15594731
36	0xbe491ee9	-0.19640698
37	0x3d53f012	0.05174262
38	0x3e6d2cd6	0.23161635
39	0x3e24294e	0.16031381
40	0x3eda1b98	0.42599177
41	0x3eddb59e	0.43302625
42	0xbdbafd64	-0.09130362
43	0xbcc64c06	-0.024206173
44	0x3ed07b2b	0.4071897
45	0x3e46fa32	0.1943138
46	0xbec74bfc	-0.3892516
47	0x3de52f7b	0.11190697
48	0x3efe4cca	0.4966796
49	0x3ede7290	0.4344678
50	0xbf36be71	-0.7138434
51	0x3d5d9981	0.05410147
52	0x3ef2cce9	0.4742196
53	0x3d84d1ef	0.06485354
54	0x3e9bc8b0	0.3042655
55	0xbededaac	-0.43526208
56	0x3f48c9d0	0.7843294
57	0xbe9a6a98	-0.3015945
58	0xbd6a1ea1	-0.057158116
59	0x3e56e7f1	0.20986916
60	0xbe8bfc15	-0.2734076
61	0x3b929f36	0.004474546
62	0x3ee722d5	0.45143762
63	0x3e14470b	0.14480226
64	0xbe68bb9f	-0.22727822
65	0x3e621f57	0.22082268
66	0x3e9f17eb	0.31072935
67	0x3e8399e7	0.25703356
68	0x3f1e186a	0.61756
69	0x3e5e2883	0.21695141
70	0xbcf75d9c	-0.030196004
71	0x3e3ed7bf	0.18636988
72	0x3f06da42	0.52676785
73	0x3e7e02dd	0.2480578
74	0xbb01a118	-0.0019779857
75	0x3f37b965	0.71767265
76	0xbd2e164c	-0.042501733
77	0x3dbc74ae	0.092019424
78	0xbe054eca	-0.13018337
79	0x3e585d71	0.21129395
80	0xbd20a080	-0.039215565
81	0x3f069d13	0.52583426
82	0x3e8d6149	0.27613285
83	0x3f193f45	0.59862167
84	0xbdbb9a9a	-0.09160347
85	0x3dfb0b53	0.12258019
86	0x3dd54d37	0.10415118
87	0x3e979f04	0.29613507
88	0x3e6fe124	0.23425728
89	0xbeb074d6	-0.3446414
90	0x3f12864c	0.5723617
91	0x3e28c03f	0.16479586
92	0xbf508364	-0.81450486
93	0xbc02b626	-0.007977998
94	0xbd68e0a0	-0.056854844
95	0xbdb0f54e	-0.08640538
96	0xbf656843	-0.89612216
97	0x3e9fa2b7	0.3117883
98	0x3dc3b263	0.09555509
99	0xbecc9cee	-0.39963478
100	0xbe89e6b8	-0.26933837
101	0xbdd3703f	-0.103241436
102	0xbf04ce33	-0.51877135
103	0xbe1ef2f3	-0.15522365
104	0x3edd3ba5	0.43209568
105	0x3e34fc23	0.17674308
106	0xbdd141c8	-0.10217625
107	0xbd396a3c	-0.04526733
108	0x3ebe9960	0.3722639
109	0x3f2cb0b0	0.67457104
110	0x3e33828b	0.17530267
111	0x3f25a225	0.6470054
112	0x3e605c80	0.21910286
113	0xbf0d709a	-0.5524994
114	0x3f6882b4	0.9082444
115	0x3dc35b66	0.09538917
116	0xbf3186af	-0.69346136
117	0x3e6a98cb	0.22909848
118	0x3e0b615c	0.13611358
119	0xbe672765	-0.22573622
120	0x3efafb44	0.49019825
121	0xbe8c87df	-0.2744741
122	0x3e15710a	0.14593902
123	0x3e1fab69	0.15592732
124	0x3e7e4f67	0.24834977
125	0xbe82fe91	-0.25584844
126	0x3eef0760	0.46685314
127	0x3de8d49f	0.11368679
128	0xbe3bbc02	-0.18333438
129	0x3da50d21	0.08059145
130	0x3d045473	0.0323071
131	0x3e42558a	0.18977943
132	0xbd1730b0	-0.036911666
133	0xbd9029d5	-0.07039229
134	0xbd9d52f4	-0.07681838
135	0xbc9fd342	-0.019509915
136	0x3ea8b06c	0.329471
137	0xbdcf2641	-0.10114718
138	0xbf113922	-0.567278
139	0x3ee744de	0.4516973
140	0x3dd78f90	0.10525429
141	0xbec3c279	-0.38234308
142	0xbe5874c9	-0.211383
143	0x3ecf1f2e	0.40453476
144	0xbe64ced4	-0.22344524
145	0x3e9443b5	0.28957906
146	0x3d8cf2e5	0.06882266
147	0xbddb67f0	-0.10713184
148	0x3ed7b8cb	0.42133173
149	0xbe19fcd3	-0.15037851
150	0xbe2bbef0	-0.16772056
151	0xbdecc79a	-0.115615085
152	0x3dd71af0	0.10503185
153	0xbe32ad6c	-0.17448968
154	0x3e36cdf2	0.17852
155	0xbeda5561	-0.42643264
156	0xbebca6f9	-0.3684614
157	0x3e217e1e	0.15770766
158	0x3edbdd16	0.42942113
159	0x3ea26c74	0.31723368
160	0xbce36ce6	-0.027761888
161	0x3c9eb109	0.019371526
162	0xbdf1fab7	-0.11815398
163	0xbdc00c76	-0.09377377
164	0xbeabe340	-0.33571815
165	0x3d88ef36	0.06686251
166	0xbd6a62a5	-0.05722298
167	0xbe8bb0fd	-0.2728347
168	0xbe6bc347	-0.23023711
169	0x3ef11629	0.4708722
170	0x3e626f63	0.22112803
171	0x3ecdde24	0.40208542
172	0xbe61425e	-0.21997973
173	0xbe8c26b4	-0.27373278
174	0x3d5b9b53	0.053614926
175	0x3e15510d	0.145817
176	0xbd04d2ff	-0.032427784
177	0x3e67a13d	0.22620101
178	0xbe87617f	-0.2644157
179	0xbe28f440	-0.16499424
180	0x3ec67df1	0.3876796
181	0x3e06cedc	0.13164848
182	0x3c826f7c	0.0159223
183	0x3ee6e2bd	0.45094863
184	0x3c9c73da	0.019098211
185	0xbebca8d8	-0.36847568
186	0x3e80d5a8	0.25163007
187	0x3e8ab072	0.27087742
188	0xbd49f536	-0.049306117
189	0xbe7ecd9d	-0.24883123
190	0xbda7337b	-0.08164116
191	0x3e5538f8	0.20822513
192	0x3ed77c79	0.42087153
193	0xbec2973a	-0.38006002
194	0xbdc0fa5a	-0.09422751
195	0x3efb5bdf	0.4909353
196	0x3f37962f	0.71713537
197	0x3dccccd5	0.10000006
198	0x3e08536b	0.13313071
199	0xbe8cb8b8	-0.2748468
200	0x3b7f6afe	0.0038973684
201	0xbe51a314	-0.20472366
202	0xbea20e11	-0.31651357
203	0x3e76440d	0.24049397
204	0xbdbe5538	-0.09293598
205	0x3eac8c5e	0.33700842
206	0xbc80c763	-0.015720075
207	0xbf2619d1	-0.6488314
208	0x3e0c71b4	0.1371525
209	0x3ebaf6e6	0.36516494
210	0x3eaf4009	0.34228542
211	0xbeb69cc9	-0.35666493
212	0xbf17f7c2	-0.59362423
213	0xbda8fd93	-0.082514904
214	0xbea1ca25	-0.31599537
215	0x3e579560	0.21053076
216	0x3f510301	0.8164521
217	0xbe39d672	-0.1814821
218	0x3e677be9	0.22605862
219	0xbc2611f8	-0.01013612
220	0xbf0d0f43	-0.5510141
221	0xbf57986a	-0.8421694
222	0xbf119398	-0.56865835
223	0xbdae2715	-0.08503548
224	0xbefe74b5	-0.49698415
225	0xbbb1d9b6	-0.0054275645
226	0x3de9ee04	0.11422351
227	0xbe12842b	-0.1430823
228	0xbde17a05	-0.110096015
229	0x3eef032f	0.46682116
230	0xbf2a980e	-0.6663827
231	0xbe0bbd1b	-0.13646357
232	0xbd236ad6	-0.03989681
233	0xbda4c402	-0.08045198
234	0x3ee6110a	0.44934875
235	0x3d41ca8b	0.0473123
236	0x3e340941	0.17581655
237	0x3da11b51	0.07866538
238	0x3d4d6c5b	0.050152164
239	0xbe952480	-0.2912941
240	0x3ef8948d	0.48550835
241	0xbee6223a	-0.44947988
242	0x3f0979a7	0.5370125
243	0xbe2fd987	-0.17172824
244	0xbd901e06	-0.070369765
245	0x3e6c720f	0.23090385
246	0xbed6f1a2	-0.41981226
247	0xbdf040bf	-0.11731099
248	0x3e8c79f6	0.274368
249	0x3e2ae5a1	0.16689159
250	0xbeca57bd	-0.39520064
251	0x3dcaca9a	0.099019244
252	0xbe4a393a	-0.19748393
253	0x3e876ce1	0.26450256
254	0xbe8f2452	-0.27957398
255	0xbea91475	-0.3302342

encoder.convs.1.fc.bias f4 [64]
0	0xbe998813	-0.2998663
1	0x3c97e807	0.018543256
2	0x3d94dc5f	0.07268595
3	0x3d2f84e1	0.042851333
4	0x3e8bbdd6	0.2729327
5	0x3c914052	0.017730866
6	0xbe47f2b7	-0.19526182
7	0xbe4cddbf	-0.20006464
8	0xbe33ef8c	-0.17571849
9	0xbe67f031	-0.2265022
10	0x3e495b4a	0.1966373
11	0x3e41b0dc	0.18915123
12	0xbd3434f1	-0.0439958
13	0xbd8e1807	-0.069381766
14	0xbddf0d2c	-0.10891184
15	0xbe1f454e	-0.15553781
16	0xbcc74bc1	-0.024328114
17	0xbe098ac7	-0.13431846
18	0xbda4b814	-0.080429226
19	0x3e099858	0.13437021
20	0x3dec2475	0.11530391
21	0x3db23691	0.08701814
22	0x3e0e47ad	0.1389453
23	0xbd11f2f3	-0.035632085
24	0x3e97f924	0.29682267
25	0x3e49fcc3	0.19725327
26	0xbcde3fcf	-0.027130036
27	0xb9a269fa	-0.00030978007
28	0x3e6d2bfe	0.23161313
29	0x3d140c4b	0.036144536
30	0x3c78f696	0.015195509
31	0x3dd4a59b	0.10383149
32	0xbf3c5dd2	-0.7358066
33	0xbc93fa0f	-0.018063573
34	0xbd08aec6	-0.033369802
35	0x3e47b11e	0.19501159
36	0xbe7f66d7	-0.24941574
37	0x3dd398cc	0.10331878
38	0xbd3e920a	-0.046525992
39	0xbede4fad	-0.43420163
40	0x3d8d80d0	0.06909335
41	0x3d9c32d0	0.07626879
42	0x3e330ec0	0.17486095
43	0xbdd21f87	-0.102599196
44	0xbf040428	-0.5156884
45	0xbe885dd1	-0.26634076
46	0xbe3b84e9	-0.1831242
47	0x3de815b2	0.11332263
48	0x3e856fff	0.2606201
49	0x3d8d7421	0.069069155
50	0x3d7830ee	0.060593538
51	0x3e5912bd	0.21198554
52	0xbe26369b	-0.16231768
53	0x3e495f38	0.1966523
54	0xbe89f7eb	-0.2694696
55	0xbe4b8dd2	-0.19878319
56	0xbd63c5cf	-0.055608567
57	0x3e8a13f6	0.26968354
58	0xbdb56568	-0.08857232
59	0x3dd979a4	0.10618904
60	0x3e2a1220	0.16608477
61	0xbd12fe07	-0.03588679
62	0x3e124e9a	0.14287797
63	0x3e5aa880	0.2135334

encoder.convs.1.attn.weight f4 [64, 144]
0	0xbe1b75d5	-0.15181668
1	0xbf138b19	-0.5763412
2	0x3e857e8e	0.26073116
3	0x3e13e783	0.14443783
4	0x3ebfd775	0.37469068
5	0x3ef59f74	0.47973216
6	0x3e4f767c	0.20260042
7	0xbc340ebf	-0.010989844
8	0xbe51fe5d	-0.20507188
9	0xbe3f2696	-0.18667063
10	0xbeba9be1	-0.3644705
11	0x3e9723b2	0.2951942
12	0x3d656b8a	0.05601076
13	0x3edd9de6	0.4328453
14	0x3ebc6388	0.36794686
15	0xbe06c009	-0.13159193
16	0x3efb1999	0.49042967
17	0x3ec862cc	0.39137876
18	0x3f264745	0.649525
19	0xbe976bee	-0.2957453
20	0x3e9a411c	0.301278
21	0xbe7bd6ec	-0.24593705
22	0x3e9bb13d	0.3040866
23	0xbecd71ad	-0.4012579
24	0x3e2180e4	0.15771824
25	0x3dcd7eb4	0.10033932
26	0x3e9ac547	0.30228636
27	0x3ecb9ecf	0.397696
28	0xbe44c4e2	-0.1921573
29	0xbef4e0cd	-0.4782776
30	0xbe9c04a9	-0.30472305
31	0x3ea044cc	0.31302488
32	0xbc7a5c8a	-0.015280852
33	0xbee841e4	-0.4536277
34	0xbeb4fe9d	-0.35350505
35	0x3eb58250	0.35450983
36	0xbf1818d8	-0.5941291
37	0x3e550a03	0.208046
38	0xbdee2dfa	-0.11629863
39	0x3d4be322	0.049777158
40	0xbeac8d2b	-0.33701453
41	0x3f4c0b5e	0.79704845
42	0x3e52abce	0.20573351
43	0xbe200a6c	-0.15628976
44	0xbef0a7b5	-0.4700295
45	0x3dddc914	0.10829368
46	0xbe9184ed	-0.28421727
47	0xbcfc465c	-0.030795269
48	0x3e24782c	0.16061467
49	0xbf028412	-0.50982773
50	0x3e9dd9ee	0.3083033
51	0xbeae8571	-0.34086183
52	0xbeded27a	-0.43519956
53	0xbead3998	-0.33833003
54	0x3f12abb9	0.5729328
55	0x3f111c5a	0.56683886
56	0xbf0aa0bc	-0.5415151
57	0xbceec4e3	-0.029146617
58	0x3e30f765	0.17281874
59	0xbeb03220	-0.34413242
60	0x3d40adb2	0.04704065
61	0xbe930252	-0.28712708
62	0x3d2e2472	0.042515226
63	0xbde87393	-0.11350169
64	0x3ed0ccf6	0.40781373
65	0x3ecaff13	0.3964773
66	0x3e138671	0.14406754
67	0xbe9e4f1e	-0.30919737
68	0xbe70c1ef	-0.2351148
69	0xbe3a20d3	-0.18176584
70	0xbdb400b2	-0.08789195
71	0x3d18352a	0.037160076
72	0x3e81627d	0.25270453
73	0x3d672dcd	0.056440163
74	0xbe8a6f10	-0.2703786
75	0xbeb3512c	-0.35022867
76	0xbeb5d733	-0.35515746
77	0xbea0b8d5	-0.31391016
78	0xbd906ef5	-0.070524134
79	0x3e1edc5b	0.15513746
80	0xbeafa894	-0.34308302
81	0xbdfdc97a	-0.12391944
82	0xbe515672	-0.20443133
83	0x3da514f4	0.08060637
84	0xbe6f278e	-0.23354933
85	0xbe1be1c7	-0.15222846
86	0xbec19fed	-0.37817326
87	0x3da9b323	0.08286121
88	0xbe9b01c2	-0.3027478
89	0xbe42f9ee	-0.19040653
90	0x3ed25a6f	0.4108462
91	0x3e7d15d6	0.24715361
92	0xbe85d3d1	-0.26138166
93	0x3eae7f6f	0.340816
94	0x3e811a93	0.25215587
95	0xbeb38aa0	-0.350667
96	0x3e0fa5ca	0.14028087
97	0x3e936998	0.287915
98	0x3ea16816	0.31524724
99	0xbe9b1cd0	-0.3029542
100	0x3ead6db1	0.3387275
101	0xbe2aebed	-0.16691561
102	0xbe45b66f	-0.19307874
103	0x3edefdc1	0.43552974
104	0x3ec959bf	0.39326283
105	0xbe965cd0	-0.29367685
106	0xbe1f946c	-0.15583962
107	0x3e6a71b6	0.2289494
108	0x3e517823	0.20455985
109	0x3e6c03b2	0.23048285
110	0x3e245d6c	0.16051263
111	0xba4fb9fe	-0.00079241383
112	0xbe6bc9b9	-0.2302617
113	0x3da9063a	0.08253141
114	0xbe921c4f	-0.28537223
115	0x3dd23b57	0.102652244
116	0x3b3fed4a	0.0029285722
117	0x3dc85ea2	0.09783675
118	0xbe2598d9	-0.16171588
119	0xbdd1435b	-0.10217925
120	0x3cc45e3a	0.023970712
121	0xbd9835ad	-0.07432113
122	0x3c8c9097	0.01715879
123	0x3b212b98	0.0024592634
124	0xbd2a132c	-0.04152219
125	0x3e8e6aaf	0.27815768
126	0x3e03f09f	0.12884758
127	0x3d4e55a2	0.050374635
128	0xbf7ea0d7	-0.9946417
129	0x3f20f3b3	0.62871855
130	0x3f845c28	1.0340624
131	0xbffb0a53	-1.9612526
132	0xbe9bf893	-0.30463085
133	0xbf609bd2	-0.8773776
134	0xbfd61304	-1.6724553
135	0xbe545302	-0.2073479
136	0xbf1b26d0	-0.606061
137	0x3fd5005e	1.6640737
138	0x3f6d6cab	0.9274394
139	0xbfd18b2a	-1.6370595
140	0xbf6aca2f	-0.9171476
141	0x3f563e3a	0.836887
142	0xbfac94c4	-1.34829
143	0xbf845ba1	-1.0340463
144	0xbe05ef23	-0.13079505
145	0x3e8c54f0	0.27408552
146	0xbc53badb	-0.012922968
147	0xbf279054	-0.654546
148	0xbe8fba09	-0.2807162
149	0xbf33a420	-0.7017231
150	0xbe019849	-0.12655748
151	0xbd80ef06	-0.0629559
152	0xbd847550	-0.06467688
153	0x3eed1413	0.46304378
154	0x3eb7ec9c	0.35922706
155	0x3d85da46	0.06535773
156	0x3dcf0799	0.10108871
157	0x3d84a58c	0.06476888
158	0xbf0f3859	-0.55945355
159	0xbe9b9cf6	-0.3039319
160	0xbe2fa79c	-0.17153782
161	0xbef469e3	-0.47737035
162	0xbeb640ef	-0.35596415
163	0x3f22f4b7	0.63654655
164	0x3eb1ada9	0.34702805
165	0x3e890505	0.26761642
166	0x3e32b758	0.17452753
167	0xbe52760b	-0.20552842
168	0x3f1eb7e6	0.61999357
169	0x3eef1cec	0.46701753
170	0xbe588753	-0.21145372
171	0x3f4c5afd	0.7982634
172	0x3e9e0598	0.30863643
173	0x3efa484d	0.48883286
174	0xba10e0a0	-0.0005526636
175	0xbf10af82	-0.56517804
176	0xbec639b8	-0.3871591
177	0x3e259afa	0.161724
178	0x3ecedc07	0.40402243
179	0xbcee90d2	-0.02912179
180	0x3e8c2555	0.27372232
181	0xbe0dd185	-0.13849457
182	0xbd52ad42	-0.051434763
183	0x3d366474	0.044529393
184	0x3f199b8f	0.6000299
185	0xbf17fb64	-0.59367967
186	0xbdaef8e4	-0.08543566
187	0x3ec410e4	0.38294137
188	0x3e33fbd7	0.17576538
189	0xbd99c275	-0.07507793
190	0x3e0a945a	0.13533154
191	0xbd89f658	-0.067364395
192	0x3e613789	0.21993841
193	0xbca66052	-0.020309601
194	0xbe9e1d4b	-0.30881724
195	0xbf086b18	-0.5328841
196	0xbfa17a4c	-1.2615447
197	0x3d4f7208	0.050645858
198	0xbefe03ec	-0.49612367
199	0xbee1f451	-0.4413171
200	0xbeca6155	-0.39527383
201	0xbd5b1a05	-0.05349161
202	0xbf158a21	-0.58413893
203	0x3e613aac	0.21995038
204	0x3f1fde5d	0.62448674
205	0x3f4c1a67	0.79727787
206	0x3f342f72	0.70384896
207	0x3f83000d	1.023439
208	0x3e430b82	0.19047359
209	0xbd69319e	-0.056932084
210	0x3edf1849	0.43573216
211	0x3f2b7267	0.6697144
212	0x3e70afa0	0.23504496
213	0xbd89f5ec	-0.06736359
214	0x3cb7dc34	0.022443868
215	0xbcc62ff5	-0.02419279
216	0xbefb44ba	-0.49075872
217	0xbe2c5dd6	-0.1683267
218	0x3dff73a2	0.12473227
219	0x3e999f3c	0.300043
220	0xbd94f724	-0.07273701
221	0xbe0c41aa	-0.13696924
222	0x3e63b3e1	0.22236587
223	0xbd6ffa34	-0.05858822
224	0x3ed4a699	0.41533354
225	0x3e2a897e	0.16654012
226	0x3ed2f3eb	0.4120172
227	0xbdebcff5	-0.11514274
228	0x3e06cd18	0.13164175
229	0x3d05cb40	0.032664537
230	0xbd90e317	-0.07074564
231	0xbe8ef89d	-0.27924052
232	0x3e6f7dc1	0.23387815
233	0x3ebf3ce7	0.37351152
234	0xbef4caee	-0.47811073
235	0xbe171a9c	-0.14756244
236	0x3e25c8fe	0.16189954
237	0xbea70db1	-0.32627633
238	0xbe9eacc1	-0.30991176
239	0x3e53d452	0.20686463
240	0xbe8650d4	-0.26233542
241	0xbe22a4e8	-0.15883219
242	0xbebd7365	-0.37002102
243	0x3e22c1de	0.15894267
244	0xbf0428ef	-0.5162496
245	0x3c1c0bbf	0.009524285
246	0x3eabeba7	0.33578226
247	0xbea51ac1	-0.32246974
248	0xbdbbcccc	-0.09169921
249	0x3d8fab35	0.07015077
250	0x3e06266c	0.13100594
251	0xbd607faa	-0.05480925
252	0xbe1473fa	-0.14497367
253	0xbe4ea200	-0.20178986
254	0xbb81c174	-0.003959829
255	0xbea2169b	-0.31657872

encoder.convs.1.attn.bias f4 [64]
0	0xbdea57ab	-0.114425026
1	0x3ee5f598	0.44913936
2	0x3def8a9a	0.11696358
3	0x3d1c5a33	0.03817196
4	0xbe0128d6	-0.12613234
5	0x3eb03bd9	0.3442066
6	0xbee2839f	-0.44241044
7	0x3e3294ec	0.17439622
8	0xbe84e29d	-0.25954142
9	0xbf07a31d	-0.52983266
10	0xbf1c277e	-0.6099776
11	0xbe28b1c9	-0.1647407
12	0x3e064c2b	0.13114993
13	0x3e576e37	0.21038137
14	0x3c1de65f	0.009637444
15	0x3e2020d5	0.15637524
16	0xbecc4a64	-0.39900506
17	0xbd5a1542	-0.05324293
18	0xbe23353d	-0.15938278
19	0xbf0da993	-0.55336875
20	0x3df7d49f	0.12101101
21	0xbeb468f7	-0.35236332
22	0xbe2963c1	-0.1654196
23	0x3e2236fb	0.15841286
24	0x3f19ad5f	0.6003017
25	0xbea86f31	-0.32897332
26	0xbf172d2a	-0.5905329
27	0xbd35a215	-0.044344027
28	0xbec0463b	-0.37553582
29	0xbed31e1b	-0.41233906
30	0x3e1a7e7f	0.15087317
31	0xbe9ca6d1	-0.3059602
32	0xbe32bcb6	-0.174548
33	0xbe2a0167	-0.16602097
34	0xbed7e1e7	-0.42164537
35	0x3d2d135e	0.042254798
36	0xbe9ffa66	-0.31245726
37	0xbfc5836d	-1.5430733
38	0x3df37a05	0.11888508
39	0xbe9134af	-0.28360507
40	0xbea90a12	-0.33015496
41	0x3e88e8f3	0.26740226
42	0xbf71508a	-0.9426352
43	0x3e19bf06	0.15014276
44	0x3d20364c	0.03911428
45	0xbe9de1b1	-0.3083625
46	0xbd9a1952	-0.07524361
47	0xbf011430	-0.5042143
48	0xbede04e6	-0.43363112
49	0x3f570ea4	0.84006715
50	0x3dbb0581	0.09131909
51	0xbe3929c8	-0.18082345
52	0xbe731611	-0.23738886
53	0xbea12d82	-0.31480032
54	0x3e00d9af	0.1258304
55	0x3ddd4754	0.108046204
56	0x3cf1d9da	0.029522825
57	0xbe2d4924	-0.16922432
58	0x3e1e1f67	0.15441667
59	0xbf19e063	-0.6010801
60	0xbf02d765	-0.51109916
61	0xbf0ebdc0	-0.55758286
62	0x3ce911aa	0.028450806
63	0x3e0f3e3f	0.13988589
